checkpoints/hypo_model.pt (torch, 38434 bytes, 15 tensors)

net.0.weight f4 [64, 6]
000000 aa 1f 91 3e 30 58 70 bd c0 30 a6 be 28 11 94 3e
       0.2834447 -0.058677852 -0.32459068 0.2891934
000010 45 ca d5 bd ff b0 28 be 5d 1b 7a 3d 9a bb 8a 3e
       -0.104389705 -0.16473769 0.061061252 0.27096254
000020 ae e9 91 3d 74 58 9a be e9 9f 9b be 2c 10 bd bd
       0.07124649 -0.3014561 -0.3039544 -0.092316
000030 81 bc 91 be 00 b4 9a 3e 4b 8e f4 3d 1b 6b 29 3e
       -0.2846413 0.30215454 0.11941203 0.16544764
000040 7d 00 21 bd c0 c7 9a 3d 32 3f 2a 3e c1 b1 5f be
       -0.039307106 0.075576305 0.1662567 -0.21845151
000050 68 00 15 be 23 b2 e3 bd 4a d4 29 be e8 fd 33 bd
       -0.14550936 -0.11117961 -0.16584888 -0.043943316
000060 b6 cf 1a 3e 4a d9 9f 3d e3 9d a8 be 8f a8 e0 3d
       0.15118298 0.078051165 -0.32932958 0.1096965
000070 4d 22 c6 3c a9 46 8c be 3b 4c ad 3e 0d 1e 64 3e
       0.024186278 -0.2739766 0.33847222 0.22277088
000080 c9 29 8b bd 15 21 0b 3d 96 2b 45 bd 9a ad 76 3e
       -0.06795079 0.033967096 -0.04813727 0.24089661
000090 07 36 33 3e 01 ac c4 3e 00 51 84 3d 52 97 aa bd
       0.17501079 0.3841248 0.06460762 -0.08329643
0000a0 af ec ee bd 3b 22 b6 be bb 40 92 3e 8f f0 6c be
       -0.116662376 -0.3557299 0.2856501 -0.23138641
0000b0 13 77 68 3d b7 2b 16 3e 0b bd 4c 3e 1f 95 3d be
       0.056754183 0.14665113 0.19993989 -0.18513916
0000c0 36 4b fb bd 36 a1 91 3e 8f 9f 98 3e 02 e7 88 be
       -0.12270205 0.28443307 0.29809234 -0.26738745
0000d0 d7 a2 88 be 68 88 30 be 4c 16 4c 3e c6 bb 1d 3e
       -0.26686737 -0.17239535 0.1993038 0.15403661
0000e0 f3 ef 17 3c 4d 28 97 3e 6a 1f 6a 3e b7 8a d5 3d
       0.009273517 0.29522935 0.22863546 0.104268484
0000f0 35 25 dc be 95 b8 72 be b6 25 ba 3d 72 6d 6c 3e
       -0.42997137 -0.23703225 0.09089224 0.23088625
000100 9f ef 9d be 0c d1 a8 be d1 e4 f1 bd 74 93 d3 bd
       -0.3084688 -0.3297199 -0.118112214 -0.10330859
000110 c3 99 b6 bd ce b8 48 3d 51 92 57 3e aa 0c 37 be
       -0.089160465 0.04900437 0.21051909 -0.17875925
000120 23 d2 aa be 53 7e 1d 3d ce b7 08 be 11 a2 93 3e
       -0.33363447 0.03845055 -0.13351366 0.28834584
000130 4b 90 b2 3e 47 5d e2 bd 69 3b b2 3d af 85 90 3e
       0.34875712 -0.110529475 0.08702738 0.28226992
000140 e0 8f 2c 3e c2 1a d6 be 6a 26 6d 3e 02 dc 80 3e
       0.16851759 -0.4181729 0.23159185 0.25167853
000150 a7 ef a6 3e 64 0c 3f be aa 9a 06 bd dd 89 c9 be
       0.32604715 -0.1865707 -0.032862343 -0.39362994
000160 73 0e 9b bd 9c 2c 34 3e 56 a7 6e 3e 79 b3 98 3d
       -0.07571115 0.17595142 0.23306021 0.07456107
000170 75 c7 f3 3d c8 7d 2e be 81 25 b5 be 71 c7 ad 3e
       0.11903278 -0.17040169 -0.35380176 0.33941224
000180 31 18 63 bd a7 49 d0 be 8d 72 85 bc 52 87 5e be
       -0.055442993 -0.40681192 -0.016289974 -0.21731308
000190 08 8c 4f 3e a0 e2 6c bc c0 d1 7c bb 28 11 03 be
       0.20268261 -0.0144583285 -0.003857717 -0.12799513
0001a0 35 68 92 3e 93 40 a6 3d 90 8b 14 3e 38 a9 ef bd
       0.2859513 0.08117785 0.14506364 -0.11702198
0001b0 aa b4 6d be 8b e4 c8 3d e4 17 9b 3e fe ed 69 bd
       -0.23213449 0.09809216 0.30291665 -0.057111733
0001c0 a4 5f 7e be 95 40 c2 3e af 7e 97 3e b9 19 90 bd
       -0.24841172 0.37939897 0.2958884 -0.07036156
0001d0 12 bd ac bc 19 d7 af 3e 75 e6 95 3d fe b5 8c be
       -0.02108625 0.34343794 0.07319347 -0.274826
0001e0 9d f2 81 3e a4 4c aa be c1 bb c7 3d 48 ec 75 3e
       0.25380412 -0.33261597 0.09752608 0.24015915
0001f0 0f 95 85 3e 21 c0 11 3e 0a e6 be bd ec 89 a9 3d
       0.26090285 0.14233448 -0.0932122 0.0827826
000200 8e 73 82 bd c1 9f be be ef 93 11 be f8 de be 3d
       -0.063696966 -0.37231258 -0.14216588 0.09319872
000210 84 e5 f1 bd 2a ad b7 be 9e e2 22 be fa fd ae 3e
       -0.11811355 -0.358743 -0.1590676 0.34178144
000220 ca fb fe 3d b8 f0 3c be 18 ee a0 bd a9 89 b5 3d
       0.12450369 -0.18451202 -0.07857913 0.08864147
000230 05 8d 8e 3e 8c 60 0b be fd 49 b5 be 98 42 8f be
       0.27841964 -0.13611048 -0.3540801 -0.27980494
000240 c5 b1 fc bd cf 91 75 be 53 03 68 3e fd 98 6e be
       -0.12338594 -0.23981403 0.22657518 -0.23300548
000250 fd 7c 1b 3e d6 37 cb be 68 14 bf 3e 15 d5 c1 bc
       0.15184398 -0.39691037 0.37320256 -0.023661176
000260 41 7a 90 bd 31 6f c8 be 9d 80 c2 3e e2 90 8a be
       -0.07054568 -0.39147332 0.3798875 -0.27063662
000270 ca e6 ed 3d 2d 99 d4 3e 8d f5 79 be a4 ec 14 bd
       0.11616285 0.41523114 -0.24410076 -0.03635849
000280 8b 61 95 3e 08 45 5b 3e 78 60 dd 3e 8a 28 87 be
       0.29175982 0.21413052 0.43237662 -0.26398116
000290 70 eb 7a bc 12 79 a3 3e e4 a4 98 3e 7f f1 51 be
       -0.015314922 0.31928307 0.29813302 -0.2050228
0002a0 4e 45 48 be e5 c4 88 3e 12 9f a2 be c1 8b 0a be
       -0.19557688 0.2671272 -0.31761986 -0.13529874
0002b0 7e 16 6e be 92 43 98 be 34 09 66 be 84 2c 10 bd
       -0.23250768 -0.29739052 -0.22464448 -0.035198703
0002c0 82 8d 5a 3e 74 16 59 3e 91 1f b9 be 31 25 d3 be
       0.21343043 0.21199971 -0.36156896 -0.41239312
0002d0 0c 0b 75 bb 41 e5 bc 3e 18 82 e3 be 0b 67 b2 bd
       -0.0037390618 0.36893657 -0.4443519 -0.0871106
0002e0 d8 07 82 3e 27 3c 97 3d df 3d 57 3e d7 2e d3 3e
       0.2539661 0.0738452 0.21019696 0.41246673
0002f0 30 4d 9e 3d 82 ad 91 be be 5b 9b 3d 9d 1b ab be
       0.07729566 -0.28452688 0.07585858 -0.33419505
000300 af c7 c7 3e 03 e7 0c be e8 3f 8f be 78 e9 81 be
       0.39019534 -0.13759999 -0.27978444 -0.25373435
000310 dd 81 63 3e 0a fc ff 3b fb 98 f7 be 07 da 41 be
       0.22217508 0.007812028 -0.48358902 -0.18930827
000320 6d f0 a8 be 1b 99 2c 3e 52 d3 78 be df 7a 34 be
       -0.3299593 0.1685528 -0.24299362 -0.17624997
000330 e7 05 2f 3e ec 39 90 3c 44 44 d5 3d de 09 4f be
       0.17092095 0.017605744 0.10413411 -0.20218608
000340 90 89 9b 3e b0 fb 43 3e d5 34 34 3e 0c 96 17 3c
       0.3037839 0.1913898 0.17598279 0.009252083
000350 63 0e 05 3e ba 6c 4a 3e 5f a9 c2 3e 04 ac f2 3d
       0.1299377 0.19768038 0.38019845 0.118492156
000360 89 2a 81 be 1d 23 2b 3e 41 ed 90 be fb 09 c4 be
       -0.25227764 0.16712613 -0.2830601 -0.38288864
000370 2a 80 51 bd 8d 45 1d be dc 8b 7a 3e 68 84 44 be
       -0.051147617 -0.15358563 0.24467415 -0.19191134
000380 9d 6b 7b 3d a2 15 9f 3d 39 4f 57 3d 30 6e 87 3e
       0.061381925 0.07767798 0.052565787 0.26451254
000390 b3 7e 02 bf db 71 47 3d 01 ff e1 bd c2 29 69 bd
       -0.5097458 0.048692565 -0.11034966 -0.05692459
0003a0 89 17 d5 3d a8 b2 a5 3e 11 51 a1 be ff 5f 29 be
       0.104048796 0.32362866 -0.3150716 -0.16540526
0003b0 b5 48 8a be 1f 4c cd 3e 4b 20 87 be c2 57 b0 3e
       -0.27008596 0.40097138 -0.26391825 0.34441954
0003c0 17 78 bb 3e 82 f4 e7 3c a2 d9 a7 3e ca ba 95 3e
       0.3661506 0.028314833 0.32783228 0.2924407
0003d0 ed bf 41 bc a0 01 ad be 28 b7 0c bf 5b 3b ec 3e
       -0.011825544 -0.33790302 -0.54966974 0.46139035
0003e0 f2 96 17 be 28 c1 f5 bd b1 09 1f be 73 36 15 3e
       -0.14803675 -0.11999732 -0.1553104 0.14571552
0003f0 e4 7f c7 bb db be 2b 3e 6d 75 b6 3d 9e 1f c5 be
       -0.006088244 0.16772024 0.08909116 -0.38500684

net.0.bias f4 [64]
000000 13 44 69 3d 64 45 b0 be 91 2a 92 3e 61 27 83 3e
       0.056949686 -0.3442794 0.285481 0.2561598
000010 91 bf 40 3e 0a 88 9d be bb cb 30 3e 52 8a b8 3d
       0.18823077 -0.30767852 0.17265217 0.090107575
000020 97 ec e4 3d 4b f0 86 be 7c 18 84 3e a4 cb 74 be
       0.111779384 -0.26355204 0.2579993 -0.23905808
000030 ba 85 e0 3e 5a e9 66 3e 47 94 ac 3d ee 7f a6 3e
       0.43852025 0.22549954 0.08426719 0.32519478
000040 04 17 a0 bd ee 4b b2 be 3f a8 84 bd b4 fa 58 3e
       -0.0781689 -0.34823555 -0.06477403 0.21189386
000050 75 f5 8d be d0 c7 73 3e d3 f3 72 be 42 a4 c6 3e
       -0.2772633 0.23806691 -0.23725824 0.38797194
000060 4e ed a5 be 73 70 28 3d d0 63 03 3e ab 40 68 be
       -0.32407612 0.041122865 0.12831044 -0.22680919
000070 7d cc 79 be cb ea 23 3e 57 91 71 3e 8d ff ab be
       -0.24394412 0.16007535 0.23590599 -0.33593407
000080 7d fe 8a be 70 23 06 3e c8 ba b5 3e c6 a6 57 be
       -0.27147284 0.13099456 0.35494065 -0.21059713
000090 21 ce b5 3e dc f9 93 be 93 38 b7 3e 50 df 2b 3e
       0.35508826 -0.28901565 0.3578535 0.16784406
0000a0 c5 ec b4 bb 39 ba 2f be 19 e5 9b 3e 78 1f 69 3d
       -0.005521389 -0.17160882 0.30448225 0.056914777
0000b0 2c a9 fb 3d b6 eb 8e 3e fc e6 5a 3e f1 48 d4 bd
       0.12288126 0.27914208 0.21377176 -0.10365475
0000c0 61 e9 40 be 82 c3 a5 be 8b a6 05 3e 25 2a b2 be
       -0.18839027 -0.32375723 0.13051812 -0.3479778
0000d0 7c c0 f0 bd b1 88 21 3e 8b 42 a9 be 8b 8c 9c bd
       -0.117554635 0.157748 -0.3305858 -0.07643994
0000e0 a5 93 84 be 0f f8 c2 3e f6 73 2c be 71 6b 35 bd
       -0.25893894 0.3807988 -0.1684111 -0.044291917
0000f0 4b 3c ad 3e ed fe 04 3e ff e7 9c 3e d6 27 b2 3e
       0.33835062 0.12987871 0.3064575 0.34796017

net.3.weight f4 [32, 64]
000000 97 44 61 3d 76 98 03 3d 4a 49 ce bb 46 2b aa 3d
       0.054997053 0.03212782 -0.006295358 0.08309035
000010 5b f9 ce bd 5c b3 14 bc c1 db d3 3c 29 59 6b bc
       -0.101061545 -0.009075966 0.025861623 -0.014364519
000020 fc 1b 6e bb 2f 67 ee bd e0 8b 98 bd 3b 70 59 3d
       -0.0036332598 -0.116407745 -0.07448554 0.053085547
000030 82 af ba bd b6 af 48 bc b4 a1 bc 3d d6 b1 02 3d
       -0.09115507 -0.012248924 0.0921053 0.03190788
000040 9a 2d 0d 3d 14 d4 39 3c 4a 48 0f be cf 3d f4 bd
       0.034467317 0.011342067 -0.1399242 -0.119258516
000050 cf 75 e3 bd 72 46 ea 3b 6f 22 bd 3d be e5 e0 bc
       -0.111064546 0.007149511 0.09235083 -0.0274533
000060 61 75 c2 3c c8 1d a8 3d de 81 ae bd 96 5d a0 bd
       0.023737611 0.08208805 -0.08520864 -0.0783035
000070 c9 00 98 bd eb 16 82 bc 3b f8 7f bc bf 7f 71 bd
       -0.07422025 -0.015880069 -0.015623148 -0.05895972
000080 bb d8 fd bd dd 19 26 3d af 3a b4 3d f4 44 cf bd
       -0.12394854 0.04055201 0.088002555 -0.10120574
000090 89 f3 b9 3c b3 ff 49 3d ad 13 ee bc 59 a1 1c 3d
       0.022699134 0.04931612 -0.029062117 0.03823981
0000a0 65 ad 0b bd 53 d4 7c 3c 8d c4 d0 bd 31 95 4d 3d
       -0.03410091 0.015431481 -0.10193739 0.05019111
0000b0 cf 44 a7 3c 59 7e 75 3d 7b 9a 0f 3c 1c d6 f8 3d
       0.020418553 0.059934948 0.008764858 0.12150213
0000c0 6c 08 92 3d 6b a4 c6 bd 63 42 be 3d 12 7d 59 bd
       0.071305126 -0.09699329 0.09290006 -0.053097792
0000d0 2f 7c b1 3d 00 af 86 bb 9d ed 89 3a 96 03 f0 3d
       0.08666264 -0.004110217 0.0010523085 0.11719434
0000e0 54 0f da 3d 54 66 b4 bc db 6b 33 bc c4 07 e6 bc
       0.10647455 -0.02202145 -0.010951008 -0.028079875
0000f0 d3 c8 01 3e 56 2a 84 3d 68 f1 28 bc 29 d8 9c bc
       0.12674265 0.064533874 -0.010311462 -0.019146042
000100 e3 90 8b bb 17 cc 89 3d 90 db c0 3d a3 c4 b6 bd
       -0.004259215 0.0672838 0.09416878 -0.08924224
000110 a7 44 e9 bd 7b 8f 64 bd 78 dd 5d bc 78 85 c3 bb
       -0.113900475 -0.055800896 -0.013541572 -0.0059668384
000120 b6 fc d4 bd 05 91 11 bd 38 65 15 be 49 6a 08 bd
       -0.10399763 -0.035538692 -0.14589393 -0.033304486
000130 a4 8d 2c be bf 4a 21 be 7d 6b 92 bc 4b 64 3d 3d
       -0.16850907 -0.1575117 -0.01787352 0.046238225
000140 ba ac 6f 3c 2b 2f 6d bd dc be 9e 3d a0 8a 8a 3d
       0.014628584 -0.05790631 0.07751247 0.06764722
000150 fc 15 7b bc 25 61 eb 3d e7 55 f6 bd d7 07 65 bc
       -0.015325066 0.11493138 -0.12028103 -0.01397892
000160 b8 bb 8b bd f4 59 3e 3c 44 8f 2d 3e 3d 3a 1b 3d
       -0.06822914 0.011618126 0.16949183 0.037897337
000170 7f dc c4 bd 76 75 a7 3d 82 51 be 3b 7c 94 3f bd
       -0.09612369 0.08176701 0.0058080563 -0.046772465
000180 65 30 16 be 7c c3 a2 3d 5c 08 a2 3d 5c ba e1 3d
       -0.14666899 0.07947442 0.07911751 0.11021873
000190 a9 f0 c1 bd 2f d9 c1 bd 8f 4b 28 be 59 da 6e 3d
       -0.094697304 -0.094652526 -0.16435073 0.0583137
0001a0 65 c0 72 bc 7a 93 21 3e 01 b3 58 3d d4 07 48 bd
       -0.014816378 0.15778914 0.052905086 -0.04883559
0001b0 e7 80 df bd a2 ba af bc f8 31 d4 3d c8 5f eb bd
       -0.10913258 -0.021451298 0.10361093 -0.11492878
0001c0 cb 8f 96 3c 63 ed bc bd 8f bd 9d 3d a1 ce a2 3d
       0.018379113 -0.092249654 0.07702171 0.079495676
0001d0 81 ca 16 3d c7 aa ea bd 33 47 d6 bd 04 67 53 3d
       0.036814217 -0.114583544 -0.10462799 0.051611915
0001e0 fd 83 de bd 46 cb 62 3c bb 7a d4 bd 06 56 f6 3d
       -0.108650185 0.0138424095 -0.103749715 0.120281264
0001f0 c7 a7 75 be dd a8 10 be 54 82 2c 3c 87 05 2e 3d
       -0.23989783 -0.14126916 0.0105291195 0.04248574
000200 3f cb ab bd b8 8a ba bd 43 2e 5d bc 04 68 36 bd
       -0.083883755 -0.0910849 -0.013499799 -0.04453279
000210 7b cf 7c 3d 92 5c fa bd 28 01 fa bd a3 3d ef 3c
       0.061721306 -0.12224688 -0.12207252 0.029204195
000220 b7 30 51 3d 76 90 c6 3d 66 74 dd 3b 93 d7 35 3d
       0.05107185 0.096955225 0.0067582605 0.04439504
000230 45 2a 33 3e 8e 31 87 3d 5d 48 a9 bd 8c ff 62 3b
       0.17496593 0.06601249 -0.08265755 0.003463718
000240 13 ee de 3c 6c 82 a4 bd 3f 7f a6 3d f0 c0 07 be
       0.027213132 -0.080326885 0.08129739 -0.13257194
000250 68 4d 50 3d 99 3e db bd 5a 61 03 3d 04 7c 92 bd
       0.05085507 -0.10705299 0.032075264 -0.0715256
000260 66 10 a3 3d 3f 44 92 bc 2e 98 dd 3d 23 14 4f 3d
       0.07962112 -0.017854808 0.108200416 0.050556313
000270 45 c4 f0 bd e4 f3 17 3e c7 78 ee bc d7 5a b2 3c
       -0.117561854 0.1483913 -0.029110326 0.021771831
000280 5f 34 75 3d 7e 26 63 bd 4a c0 12 be 82 cc da bd
       0.059864398 -0.05545663 -0.14331165 -0.10683538
000290 68 86 3e bb 01 56 a4 3d a4 28 0c 3d 13 72 68 bd
       -0.0029071812 0.080242164 0.034218445 -0.056749415
0002a0 f0 7d 15 be db 7c e3 bd f8 60 96 bd e4 36 d8 3d
       -0.14598823 -0.11107799 -0.07342714 0.105573446
0002b0 2b 16 99 3d 28 94 09 be 75 d9 d4 3d ae 6c 89 bd
       0.07474931 -0.13435423 0.10393039 -0.06710182
0002c0 a3 a7 15 bd 87 57 d9 3c d2 29 d5 3d 47 fd e0 3d
       -0.036536824 0.026530994 0.10408367 0.10985809
0002d0 6a c1 f2 bd 65 69 a5 3d 10 06 f6 bd 0c 4b 08 be
       -0.11853297 0.08076743 -0.12012875 -0.13309878
0002e0 67 12 ca 3a 2b 6a b4 bc df 49 10 bd 76 17 b1 bd
       0.0015416861 -0.022023281 -0.0352267 -0.08647053
0002f0 53 63 94 bd ff 41 74 3c ed 27 75 3d 6b a4 66 3d
       -0.07245507 0.014908313 0.05985253 0.056309145
000300 db fa e7 bd aa e8 37 3d 41 2c f7 3c 03 1b 2b 3d
       -0.11327144 0.04489962 0.03017247 0.041773807
000310 89 65 94 bd dd 26 7b bd 85 bc 1a bd 0d a8 d3 bd
       -0.07245929 -0.06131636 -0.037777442 -0.103347875
000320 85 34 c6 bc 75 9d 56 3d b6 c5 d0 bd 7e 4f d1 3c
       -0.024194965 0.052396256 -0.1019396 0.0255506
000330 6e 43 10 3e 55 a1 08 3d f4 ef 4b ba b5 91 2d bd
       0.14088222 0.033356983 -0.0007779591 -0.042375285
000340 a6 61 b4 3d 2c fa 8d bd 20 21 e7 bd f1 b7 b5 3b
       0.088076875 -0.06932482 -0.11285615 0.005545609
000350 9a 12 ad 3d d6 c6 54 bc 23 02 74 3d a0 ce 3c bd
       0.084508136 -0.012986859 0.05957235 -0.04609549
000360 02 2f 05 bd 3d 78 87 3c 8a 23 92 bd ab 19 80 bb
       -0.032515533 0.016536826 -0.07135685 -0.00390931
000370 e8 db 2e bb 6e 34 1b 3d 48 5a 2b be 48 dc 88 3d
       -0.0026681367 0.037891798 -0.16733658 0.0668264
000380 8b 42 fa bc 65 0f f3 bd bc 96 15 3d 37 28 e8 bd
       -0.030549308 -0.11868171 0.036520705 -0.113357954
000390 50 2c b5 3d 37 d5 a6 3d 55 56 ac 3d 17 d1 01 be
       0.088463426 0.08146136 0.08414904 -0.12677418
0003a0 b3 d5 b2 bd 9e 08 8a bc b3 1d fb bc be de b2 3c
       -0.08732166 -0.016849812 -0.03065381 0.021834727
0003b0 ac 4d 29 bc c2 80 c2 3c 8c 2d ac bc 97 74 df 3c
       -0.01033346 0.023743037 -0.021017812 0.027277274
0003c0 99 60 b1 3b 08 6c f6 bc 49 fd dc bc 0a a1 85 3d
       0.0054131267 -0.03008081 -0.026976245 0.065248564
0003d0 f0 c1 c2 3d e3 22 e0 bb e3 fe 8c bd 41 81 87 bd
       0.09509647 -0.0068400963 -0.06884553 -0.0661645
0003e0 d2 f2 42 bd 4f 9d 44 3d 6c 8f 98 bd 54 e4 33 3d
       -0.047594853 0.048001584 -0.074492306 0.043918923
0003f0 69 9e 8b 3c 2b 38 a8 3d c7 28 72 3d a7 f4 a5 3d
       0.01704331 0.08213838 0.05912092 0.08103304

net.3.bias f4 [32]
000000 9a a6 ef bd 6f 29 df bd 00 b6 01 3d 2a 4f a7 bc
       -0.117016986 -0.10896575 0.03166771 -0.02042349
000010 aa 15 f1 bc 3c 1f c3 3d bc 96 a8 3d 33 e6 20 bd
       -0.029429276 0.09527442 0.08231875 -0.039282035
000020 42 1f 97 bd 27 bb 31 bb 0b d8 9e 3d ad fb 8f 3d
       -0.07379009 -0.0027119608 0.07756051 0.07030425
000030 46 7e 59 bd ef 2c 87 bc ee a7 88 bd 5b 37 56 3e
       -0.05309894 -0.016500918 -0.06672655 0.20919554
000040 51 47 d1 bc 61 00 68 3d 88 90 1d bc 8a 91 55 bc
       -0.025546702 0.056640986 -0.0096169785 -0.0130351875
000050 7d 53 d9 bd f9 15 15 3c 59 a3 0a 3d cf af e6 bd
       -0.10611627 0.009099477 0.033847187 -0.112640016
000060 ee 8e 3a bd e8 2f ee bd c0 4d 42 3c 2e 4f 32 bd
       -0.045546465 -0.11630231 0.011859357 -0.043532543
000070 4d 7e 91 bd 61 56 5b 3d 18 5e e5 bc 2a 81 7c 3c
       -0.07104168 0.053549174 -0.027998969 0.0154116545

net.6.weight f4 [1, 32]
000000 4d 7a e4 bd 0c 6c f7 3c 76 7f be bd 00 f9 00 be
       -0.111561395 0.030202888 -0.09301655 -0.12594986
000010 d8 5a 6e 3d 8c 4a fc bd aa 11 cf bc 1a 6f 07 bd
       0.058192104 -0.12318906 -0.025276978 -0.03306494
000020 dc 81 4f 3d 92 3b 04 be 4f 41 1c 3d a5 d5 ac bd
       0.050660953 -0.1291335 0.03814822 -0.08439187
000030 66 d4 91 3b 5c bd ff 3d 29 42 e8 bc f7 ca 07 be
       0.0044503687 0.12487289 -0.02835186 -0.13261019
000040 4d e3 84 3d 99 9c f7 3d d0 b7 91 bd 14 ca 17 be
       0.06488667 0.120904155 -0.071151376 -0.1482318
000050 a1 b1 7f 3d dd b6 a0 3d d5 aa f6 3c 21 4b af bc
       0.06242526 0.078473784 0.030110756 -0.021398129
000060 31 e4 23 3d 98 1f 20 3d 06 de 14 be 01 c2 50 3d
       0.040012542 0.03909263 -0.1453782 0.050966267
000070 22 69 09 bd 39 1d da bb 7e eb 71 3d 05 9c 03 3e
       -0.033547528 -0.0066563156 0.059062473 0.12852485

exp_avg f4 [64, 6]
000000 34 90 1f 3b f1 b0 b3 3a 36 69 a9 3a 78 2c c5 3b
       0.0024347426 0.0013709349 0.0012925032 0.006017264
000010 0a 6c f1 b9 e7 57 cb 3b f8 7d 05 3a 2d 3f 81 39
       -0.00046047597 0.006205547 0.0005092318 0.00024651867
000020 39 d2 19 39 37 05 0c 39 92 4a 9b 37 1f a2 df 38
       0.00014669531 0.00013353383 1.8512164e-05 0.00010663666
000030 1b 6c 1e 3c 48 42 ec 3a c3 74 e6 3b 04 39 5c 3b
       0.009669329 0.0018025124 0.007032962 0.003360332
000040 01 ef 3a ba 76 2c 90 3b 51 f1 b9 b8 4d 40 84 b8
       -0.0007130951 0.0043998314 -8.866436e-05 -6.3062274e-05
000050 f7 59 5b 39 0a 9f 14 b9 84 d2 e5 b7 66 84 f5 b8
       0.00020918982 -0.00014173627 -2.7396956e-05 -0.000117071715
000060 0b bb 03 bb b8 56 b5 ba 51 61 93 3a a2 59 58 bb
       -0.00201005 -0.0013835048 0.0011244213 -0.003301241
000070 75 02 8f b9 de af 14 bb 71 56 24 bb 90 d1 86 ba
       -0.00027276916 -0.0022687833 -0.0025075937 -0.0010285843
000080 46 1c c6 ba 90 93 dc ba b6 bd 36 b9 63 45 aa ba
       -0.0015114627 -0.0016828645 -0.00017427545 -0.001299065
000090 ec ca 22 bb 05 69 84 ba e7 1f da ba a9 7e 21 bb
       -0.002484019 -0.0010102099 -0.0016641588 -0.0024642146
0000a0 a1 de 49 ba e3 ef aa ba 05 25 3e bb 89 a6 5e ba
       -0.0007700716 -0.0013041463 -0.0029013765 -0.00084934436
0000b0 a3 8c fb b8 bb f2 b0 3b e1 68 d1 3a e1 9a 4e 3b
       -0.00011994808 0.0054000295 0.0015976691 0.003152542
0000c0 bb 85 98 3a 41 66 3e 3a 36 bd 32 3a ec bf 25 3a
       0.0011636534 0.0007263162 0.0006818356 0.0006322849
0000d0 cf d4 0e b8 e6 a7 0a 3a b6 90 fd 3b 8a 98 ac 3a
       -3.405363e-05 0.0005289301 0.007738198 0.0013168019
0000e0 64 a7 cf 3b 71 94 85 3b 3d 9b 7c 39 ab d9 80 3b
       0.006337093 0.0040765335 0.00024090424 0.003932198
0000f0 a7 32 66 39 9c 41 a7 b8 73 dc 8a 39 34 d5 15 ba
       0.00021953379 -7.975401e-05 0.0002648566 -0.00057156687
000100 ca 09 6f b9 07 66 6f b6 aa b8 d4 38 54 7b 24 b8
       -0.00022796463 -3.5673163e-06 0.00010143344 -3.9215505e-05
000110 43 69 02 39 a2 20 25 ba 29 82 b6 b9 ad 25 88 b8
       0.00012436979 -0.0006299113 -0.00034810722 -6.492003e-05
000120 3e 62 64 3b 6f 31 42 3b 1c c1 77 ba fa 45 52 3c
       0.0034848596 0.0029631515 -0.0009451078 0.0128340665
000130 6d 9d 85 3a e3 98 32 3c 66 bb 4f bb 13 5e 1d b9
       0.0010194011 0.010900709 -0.0031697392 -0.00015007732
000140 f8 b1 22 bb 16 86 9c 3a 6e 93 8c 39 01 41 9a 3a
       -0.0024825316 0.0011941816 0.00026812725 0.001176864
000150 87 53 60 3b 2f 08 2e 3a cd 89 5d 3b 2d 89 3b 3b
       0.0034229474 0.00066387927 0.003380406 0.0028615699
000160 b8 4b 2f 3a 29 b4 e8 3a 7e 95 e3 ba 55 93 82 ba
       0.0006687003 0.0017753887 -0.0017363278 -0.0009962121
000170 1e 59 85 ba 3f 15 3e ba 05 ac 37 b7 80 92 e1 b9
       -0.0010173654 -0.0007251091 -1.0947701e-05 -0.00043024495
000180 75 da 3f b4 b1 b0 2f 33 dc 2b 94 b4 bb c0 ae b5
       -1.7867735e-07 4.0906063e-08 -2.759906e-07 -1.3020102e-06
000190 fe 1b 37 b6 00 00 00 00 86 f0 53 3b e3 fc 89 ba
       -2.7285419e-06 0.0 0.0032339408 -0.0010527637
0001a0 60 64 7a 3b 56 67 9f 3b 1a d3 ab 3a 56 07 37 3b
       0.00382068 0.0048646135 0.0013109178 0.0027927957
0001b0 54 ce 18 3b 60 34 1a 3a 0b c7 2a 3a f0 83 e5 3b
       0.002331634 0.0005882438 0.0006514645 0.0070042536
0001c0 2a 1d db 38 6d fd d7 3b 9c e7 22 bb 35 07 1e bb
       0.00010448166 0.00659149 -0.0024857288 -0.0024113182
0001d0 c4 e9 16 3a 41 1e 0b 3c 09 4f 7d 3a 75 17 f2 3b
       0.00057568797 0.0084911 0.0009662961 0.00738805
0001e0 47 00 75 3a 5e e5 68 ba a1 43 b9 3a 4e 70 da 3a
       0.00093460496 -0.0008884276 0.0014134535 0.001666555
0001f0 13 5e 35 3a fe b4 90 3a b2 28 65 37 53 0c a1 36
       0.000691862 0.0011040268 1.3658939e-05 4.7996086e-06
000200 a3 c7 74 37 7b 97 0c 2b b3 11 bd 2c 77 a0 43 26
       1.4590015e-05 4.9948213e-13 5.373668e-12 6.7871686e-16
000210 56 d8 1b 3b 68 0e fe 3a 89 d0 da b9 0e 16 00 3b
       0.002378007 0.0019382956 -0.0004173557 0.0019544396
000220 70 c0 ae b9 1c ed 0b 3b cd 57 c2 3a 96 0d cf 39
       -0.00033331243 0.0021351045 0.0014827192 0.0003949224
000230 e0 ad 94 3a f4 ee 4b 3a 8e 08 f7 37 90 38 1f 39
       0.0011343323 0.0007779442 2.9448678e-05 0.00015184493
000240 1f a4 0c b9 bf f1 cc b6 19 a6 00 b9 ec 99 c1 b7
       -0.0001341258 -6.1078167e-06 -0.00012268907 -2.3079068e-05
000250 36 a3 2e b8 00 00 00 00 e3 7a 22 3a 11 dd 63 38
       -4.1636835e-05 0.0 0.0006198121 5.43269e-05
000260 00 40 f1 39 59 ad 79 b8 04 a1 a1 b9 10 eb 60 39
       0.00046014786 -5.952767e-05 -0.0003082828 0.00021449872
000270 4d 65 c6 3b 6f 9b 44 b9 99 12 79 3b 3d 2a d7 3a
       0.0060545565 -0.0001874992 0.003800547 0.0016415786
000280 70 6c d0 b9 a8 eb 3a 3b c8 a4 a8 3a eb d6 89 b9
       -0.00039753644 0.002852181 0.0012866491 -0.00026290803
000290 06 ed 06 3b dc 48 3c 3c ef 46 1d 3a 14 e5 35 3c
       0.0020588054 0.01149198 0.00059996446 0.01110198
0002a0 ba 88 ec 39 e0 c0 0c 38 44 da 9f 39 15 64 19 38
       0.00045115297 3.355823e-05 0.00030489464 3.657125e-05
0002b0 70 76 e4 37 8b 11 6b b7 22 21 0f 3a 8c 0c 65 39
       2.723487e-05 -1.4011176e-05 0.0005459954 0.00021843816
0002c0 74 ca d7 39 ac 0e b1 38 b5 06 ad b8 c9 c2 2f 25
       0.00041158835 8.4427505e-05 -8.250532e-05 1.5244826e-16
0002d0 b9 e1 31 3a fb 42 cb ba 4b 48 82 3b b2 3e 34 3b
       0.00067856495 -0.0015507633 0.003975903 0.002750319
0002e0 2f e7 84 39 61 e6 7c 3b b2 62 b1 39 53 9b b5 b9
       0.00025349247 0.0038589465 0.00033833605 -0.00034638736
0002f0 e6 d3 79 3a 3d 8a ba b9 63 76 db b9 68 8a b0 b8
       0.00095301715 -0.0003557968 -0.0004185914 -8.418114e-05
000300 17 ba 8d bb af 38 0f ba ed 32 ae ba c6 1a 58 bb
       -0.004325162 -0.00054634636 -0.0013290324 -0.0032974943
000310 0e ce e5 39 30 59 66 bb b8 d4 1c 3b 68 0b cd ba
       0.00043831806 -0.0035148375 0.0023930501 -0.0015643658
000320 ed 00 8d 3b 1e 29 6a bc 1d 2c 1f bb 91 86 39 bc
       0.004303089 -0.01429203 -0.0024287768 -0.011323587
000330 78 f1 1d bb f6 63 0a ba af a0 2c bb b4 1c 3c bb
       -0.0024100225 -0.00052791776 -0.0026340892 -0.0028703632
000340 0e 7e 8b 3a 5b a6 7a bb 92 c6 51 b9 54 f7 87 ba
       0.0010642426 -0.0038246128 -0.00020005766 -0.0010373392
000350 9c 3c a0 3a ba b3 81 3b 8e b9 1b 39 46 ee 6e 3b
       0.0012225094 0.0039581927 0.00014851076 0.003645794
000360 ac 01 5d b7 c1 bc bd 38 20 26 9f b8 5b 91 79 37
       -1.3173016e-05 9.0473804e-05 -7.588812e-05 1.48754e-05
000370 9f 75 ac 36 11 e7 90 36 62 82 b6 3a 54 2b 7b 39
       5.1396923e-06 4.318434e-06 0.0013924355 0.00023953366
000380 cc 2a d2 3a 3f 69 3a 3b af 87 2b 3a 8a f1 06 3b
       0.0016034483 0.002844408 0.0006543351 0.0020590746
000390 20 78 d4 3a 00 60 7a 3a a3 d6 1d 3a 9c ca 97 ba
       0.0016210116 0.0009551048 0.0006021058 -0.0011580768
0003a0 51 16 53 b9 55 70 a0 ba 4e 14 13 3c bf 84 a1 3a
       -0.00020130842 -0.0012240509 0.008977009 0.0012322887
0003b0 29 f7 a5 3b 3d 77 f2 3b 5c 2f de b9 dc 5c 02 3c
       0.005064864 0.007399468 -0.00042378425 0.00795671
0003c0 43 f9 f9 ba 50 12 4b ba 28 74 96 b8 eb cf 0c bb
       -0.0019071478 -0.0007746564 -7.174193e-05 -0.0021486233
0003d0 f6 ba 3c 3a 23 ab 4b bb 0b b1 66 3b a4 b8 1f ba
       0.000719949 -0.0031077347 0.003520074 -0.0006092882
0003e0 c9 8d 7f 3b c2 b4 f8 3b 5f e8 b3 ba d7 f5 1b 3c
       0.0038994423 0.0075899074 -0.0013725868 0.009519062
0003f0 b0 61 d1 39 84 ff 16 39 5f 02 8a 39 68 c0 78 38
       0.0003993637 0.00014400302 0.00026323178 5.9307e-05

exp_avg_sq f4 [64, 6]
000000 1f 41 a8 39 e7 11 51 37 c1 c7 82 39 79 db c6 39
       0.00032091976 1.2461539e-05 0.0002494436 0.00037929023
000010 3c 7c 0b 36 46 23 ac 39 35 a7 26 37 01 ba 64 36
       2.0784928e-06 0.00032832677 9.933302e-06 3.4082916e-06
000020 fd 41 30 36 5c d6 2e 36 1c 57 4f 32 6f b4 18 36
       2.6264454e-06 2.6052794e-06 1.2068792e-08 2.2754791e-06
000030 9b b0 12 3a b4 18 c3 37 41 d8 cf 39 1b ec 40 3a
       0.0005595774 2.3257315e-05 0.00039643238 0.0007359401
000040 17 cc 07 36 60 d4 24 3a cf a0 bf 36 01 f7 10 35
       2.0235364e-06 0.000628775 5.710964e-06 5.400362e-07
000050 83 19 69 35 be 61 e6 35 0b ab 0a 32 66 d8 bb 35
       8.683639e-07 1.7164782e-06 8.071548e-09 1.3995566e-06
000060 a4 4f 49 37 3c 36 fd 36 c4 77 98 36 4a e3 7d 37
       1.1999076e-05 7.5463013e-06 4.5438956e-06 1.5132895e-05
000070 c1 6b 0d 35 b6 22 23 37 de f7 18 3a 48 7c 08 37
       5.2683396e-07 9.723639e-06 0.0005835275 8.135168e-06
000080 0e b2 fa 39 80 c2 0e 3a be 02 2f 36 0d df e9 39
       0.00047816377 0.0005445853 2.6078628e-06 0.0004460741
000090 0a 2a 46 38 18 a3 0d 37 65 bc ce 37 23 f4 96 37
       4.724603e-05 8.442228e-06 2.4644842e-05 1.7995078e-05
0000a0 aa 46 09 35 3c 6e 59 37 5d 2d ac 39 3e 59 5e 37
       5.1139307e-07 1.2959874e-05 0.00032840195 1.32530095e-05
0000b0 bd 92 5d 39 0d 2b fa 39 6f e1 0b 36 85 d0 d3 39
       0.00021130867 0.0004771579 2.0843834e-06 0.00040400415
0000c0 e3 85 5d 37 5a 03 09 36 e1 2a 0d 37 96 8d 0e 36
       1.3203799e-05 2.0416542e-06 8.414238e-06 2.1242063e-06
0000d0 76 34 a1 33 d2 18 e2 35 a0 da 29 3a 3d 11 8b 37
       7.506689e-08 1.6845536e-06 0.0006479416 1.6578118e-05
0000e0 73 c7 f6 39 45 8b 1a 3a 17 8d 05 36 b3 11 00 3a
       0.00047069378 0.00058953866 1.990067e-06 0.000488545
0000f0 3c eb 91 34 b2 5d b9 32 d0 ef bb 34 34 56 72 35
       2.717951e-07 2.1579442e-08 3.500595e-07 9.027747e-07
000100 64 36 31 33 26 9f 1e 35 89 64 35 34 ca 53 04 34
       4.1260492e-08 5.909118e-07 1.6893513e-07 1.232394e-07
000110 7e 38 a2 34 eb 89 53 35 ad 46 25 34 bb fd 8b 34
       3.0215955e-07 7.880432e-07 1.5392534e-07 2.607538e-07
000120 5d c9 b5 37 32 c1 25 37 e3 6e 37 37 55 ce ae 39
       2.1670648e-05 9.879748e-06 1.0933468e-05 0.00033341596
000130 89 f9 0e 36 0f 6f 93 39 01 dd 1c 3a 1a e8 9d 37
       2.1304897e-06 0.0002812077 0.000598386 1.882394e-05
000140 86 e8 f5 39 b0 ee 06 3a ab 79 d0 35 61 71 ea 39
       0.00046903285 0.00051472615 1.5532618e-06 0.00044716432
000150 cb 5d 09 3a 10 da 23 37 da 29 ce 39 0f c6 98 39
       0.00052401115 9.766329e-06 0.00039322564 0.00029139264
000160 79 0e bc 35 e9 05 81 39 46 ad 59 3a a7 f2 40 37
       1.4011304e-06 0.000246092 0.0008303713 1.1500589e-05
000170 2e d2 2f 3a e1 38 0b 3a 78 5c 0f 36 e7 19 ea 39
       0.00067070394 0.0005310905 2.1362484e-06 0.00044651257
000180 a3 99 33 32 b5 a0 cd 2f 0d a0 a5 32 ad f5 1c 32
       1.0454104e-08 3.7403472e-10 1.928131e-08 9.136255e-09
000190 06 d3 58 32 00 00 00 00 b6 e6 eb 39 87 3f 1a 37
       1.2620836e-08 0.0 0.00044994586 9.193906e-06
0001a0 f2 3d bb 39 ee a1 f2 39 fd 17 d0 35 f6 dd cd 39
       0.00035713572 0.00046278484 1.5504189e-06 0.0003926602
0001b0 c7 71 f4 39 77 d0 c6 37 db bd ab 39 c6 8c 29 3a
       0.00046624077 2.3700513e-05 0.00032757115 0.0006467815
0001c0 6f 0f 03 36 8b 93 0e 3a 58 c3 b2 39 c6 f0 6f 37
       1.9529505e-06 0.0005438856 0.00034096348 1.43015695e-05
0001d0 c7 4a 6d 39 b5 29 0e 3a 7a 6e 36 36 df 06 e5 39
       0.00022629938 0.0005423085 2.718442e-06 0.00043683403
0001e0 fa f9 11 3a 06 a8 81 37 d5 df e8 39 8e 67 3c 3a
       0.00055685604 1.545624e-05 0.00044417256 0.0007187062
0001f0 86 55 28 36 b3 cc 21 3a 58 cc e1 33 33 ff ca 33
       2.5083732e-06 0.0006172165 1.0514549e-07 9.4527785e-08
000200 86 00 08 34 3f 4b b0 30 74 11 34 2f b4 ad 82 30
       1.2666177e-07 1.2827072e-09 1.6377105e-10 9.508114e-10
000210 19 a2 22 3a 34 b8 a9 37 c9 99 d1 39 aa ff a6 3a
       0.0006203964 2.0232146e-05 0.00039978165 0.0012740989
000220 05 97 97 36 17 d4 88 3a ee 10 b4 36 15 ad 3c 34
       4.5177317e-06 0.0010439184 5.366389e-06 1.7571831e-07
000230 e5 73 90 36 04 e0 7c 35 2f 76 c9 33 9f 04 16 35
       4.3050263e-06 9.42033e-07 9.381289e-08 5.588608e-07
000240 20 f3 ef 34 3b f4 da 30 8d 55 c7 34 db 7a 03 32
       4.4694116e-07 1.5931002e-09 3.7128885e-07 7.653138e-09
000250 10 a3 ef 32 00 00 00 00 eb 8c 9e 37 25 9a 90 36
       2.7897414e-08 0.0 1.8900688e-05 4.309479e-06
000260 91 9b fc 36 bc b6 8c 36 70 5f ca 34 04 a1 1e 36
       7.5282956e-06 4.193598e-06 3.7694872e-07 2.3637558e-06
000270 e8 f7 97 39 e3 90 cd 37 65 8b 46 39 d5 96 a9 39
       0.0002898567 2.4505372e-05 0.0001893468 0.0003234657
000280 a4 cf 15 36 12 9c 89 39 a7 6f 27 39 56 90 79 37
       2.2323593e-06 0.00026246958 0.00015967955 1.4875162e-05
000290 12 30 d7 38 26 c8 c6 39 f8 c2 11 36 a3 c1 a2 39
       0.00010260953 0.00037914625 2.172017e-06 0.00031043318
0002a0 32 63 6f 34 2e b9 1e 35 d9 0b 04 35 c9 27 d8 34
       2.2294697e-07 5.912906e-07 4.919107e-07 4.0262083e-07
0002b0 e1 71 62 33 f8 45 96 34 82 83 bf 34 6d 07 3c 33
       5.2723298e-08 2.7990586e-07 3.5672207e-07 4.3778915e-08
0002c0 4a 39 7d 34 99 40 ef 34 e8 dd 63 33 f1 75 8e 2e
       2.3583303e-07 4.456422e-07 5.305438e-08 6.478363e-11
0002d0 ca 48 94 37 6f 62 2c 37 60 7e 34 37 bc 60 70 39
       1.767687e-05 1.0274917e-05 1.075826e-05 0.0002292422
0002e0 ed 08 ca 35 85 99 3f 39 53 00 0b 38 4a f3 b9 36
       1.505277e-06 0.0001827237 3.3140484e-05 5.541752e-06
0002f0 61 b0 a2 37 e7 4a e4 36 06 97 e9 34 30 ef 95 36
       1.9394038e-05 6.8036493e-06 4.3509516e-07 4.468391e-06
000300 db 3d dd 38 f8 e2 c0 37 21 ef e7 37 8d 28 4a 38
       0.00010549623 2.2993874e-05 2.7648699e-05 4.819832e-05
000310 5d 12 9f 35 62 dc 12 38 29 51 24 37 b7 de ad 36
       1.1851768e-06 3.501436e-05 9.794058e-06 5.181729e-06
000320 a5 42 be 37 d6 8f d9 39 c3 25 59 36 5e 6a ac 39
       2.2680799e-05 0.00041496631 3.23575e-06 0.00032885646
000330 1b 30 75 3a 79 14 b4 37 9a e4 45 3a 16 a0 55 3a
       0.00093531766 2.1467205e-05 0.0007549018 0.000814916
000340 cd 7e 7a 36 0b 7c 35 3a 7c 9d d6 39 66 fa 96 37
       3.732671e-06 0.0006923086 0.00040934596 1.7997994e-05
000350 91 53 9f 39 b2 e4 ae 39 95 1b e7 35 9a ab 94 39
       0.00030389105 0.00033358257 1.7218869e-06 0.00028356613
000360 af e2 35 35 82 0b b2 35 12 a9 ce 35 83 e4 0f 35
       6.775762e-07 1.3265383e-06 1.5397402e-06 5.360418e-07
000370 c8 ef f5 33 db c8 db 34 66 88 1a 3b 4b 51 89 38
       1.14523175e-07 4.093807e-07 0.0023579835 6.547811e-05
000380 54 a4 be 3a 01 3a 50 3b 37 63 16 37 ed 3c 2b 3b
       0.0014544823 0.0031772854 8.963797e-06 0.0026128844
000390 00 5d 05 37 0d 72 b0 36 1d b5 c6 36 b9 3e 21 39
       7.949071e-06 5.258486e-06 5.921944e-06 0.00015377523
0003a0 73 be 89 35 23 66 05 39 69 98 50 3a f0 a7 50 37
       1.0262723e-06 0.00012721917 0.0007957281 1.2436867e-05
0003b0 3b f8 23 3a 0b 9a 61 3a fc ac 38 36 9a a0 3e 3a
       0.0006254946 0.0008606023 2.7518827e-06 0.00072718563
0003c0 de 5d 4d 39 74 b7 fa 36 0e 8b 0d 39 67 15 4e 39
       0.00019585292 7.4719374e-06 0.0001349861 0.00019653664
0003d0 74 38 9f 35 4a 54 2a 39 59 1b 0c 37 ab 86 50 37
       1.1862853e-06 0.00016243864 8.351018e-06 1.2429121e-05
0003e0 28 55 ae 37 8e 08 e0 39 c9 d0 24 36 d3 dd ba 39
       2.078207e-05 0.00042730983 2.4559433e-06 0.00035641956
0003f0 2d 60 c0 36 6d b0 0f 36 b6 b1 04 36 c3 52 aa 35
       5.7332422e-06 2.1411354e-06 1.9772974e-06 1.2690074e-06

exp_avg f4 [64]
000000 19 f5 57 38 06 d9 81 36 90 60 d3 b8 40 c6 4e 37
       5.148826e-05 3.8697644e-06 -0.0001007925 1.23247155e-05
000010 ea 34 3d b8 39 cf a6 37 9f 3d 26 b8 91 13 3d 39
       -4.511039e-05 1.9885238e-05 -3.9634873e-05 0.00018031734
000020 b4 2f e7 36 e6 7b 97 38 79 5e 84 b7 85 ed 57 b7
       6.88989e-06 7.223319e-05 -1.5779618e-05 -1.28703e-05
000030 42 72 12 b8 2c b9 03 39 7f 3f 2c 39 c6 c7 75 38
       -3.4915523e-05 0.00012562115 0.00016426852 5.8598605e-05
000040 99 54 f8 b3 64 3f 2b 39 7f 4d 33 b7 c8 88 89 39
       -1.1563788e-07 0.00016331446 -1.0687275e-05 0.00026232586
000050 68 9d 5e b7 17 06 44 35 b1 a6 21 b9 ee 1e 77 37
       -1.326888e-05 7.302455e-07 -0.00015416254 1.4729549e-05
000060 f6 ba 68 b6 54 9d 39 b5 f9 e4 51 b7 be 39 86 39
       -3.467952e-06 -6.9146813e-07 -1.2510683e-05 0.00025601493
000070 89 4c 5a b7 ec f4 19 36 2a 5d 65 39 01 bc de b6
       -1.3011632e-05 2.294134e-06 0.00021873848 -6.638002e-06
000080 b9 e1 01 b8 87 10 03 b6 8c 4b 21 39 b7 07 88 38
       -3.0966217e-05 -1.9530141e-06 0.000153823 6.486422e-05
000090 c3 82 a6 b6 51 f7 98 37 5a 5f 10 b9 99 25 93 b8
       -4.962408e-06 1.8234978e-05 -0.00013768431 -7.016509e-05
0000a0 b3 98 8a 38 79 ff 94 39 7d b0 d5 36 35 b1 78 39
       6.608795e-05 0.00028419102 6.3684406e-06 0.00023717138
0000b0 27 bb ba 35 8c dc 08 39 8e fb d5 35 9f 72 ba b5
       1.3912548e-06 0.00013052131 1.5942949e-06 -1.3891439e-06
0000c0 22 ce 69 37 d7 e7 12 b9 51 b1 2f b7 b9 d8 cd b7
       1.3935876e-05 -0.00014010012 -1.04720975e-05 -2.4538824e-05
0000d0 54 84 cd b4 15 18 ae b8 ba 9e 47 39 2a 31 e8 b7
       -3.8280507e-07 -8.301452e-05 0.00019037249 -2.7679449e-05
0000e0 8a 3e 1c b5 e1 9b 70 b8 12 d2 86 39 03 c6 73 39
       -5.8205535e-07 -5.7365633e-05 0.00025714986 0.00023248051
0000f0 27 6c 0b 38 0c 5e 66 39 8b 35 90 b8 6e 32 bd b5
       3.3240907e-05 0.00021969544 -6.876428e-05 -1.4096274e-06

exp_avg_sq f4 [64]
000000 ad 8a 8d 33 c2 f7 47 30 be 14 e8 33 3e 8a 0d 30
       6.591049e-08 7.2747863e-10 1.0807115e-07 5.1491955e-10
000010 7c 19 48 31 55 f0 cc 33 23 9b 8a 31 e0 74 8f 33
       2.9118317e-09 9.5432064e-08 4.0339656e-09 6.680216e-08
000020 47 ec 90 30 36 7f e5 33 4c dc 8f 2f 2b a2 8d 2f
       1.0544533e-09 1.0686783e-07 2.616808e-10 2.5762978e-10
000030 ea 16 8e 33 73 69 cb 33 f8 0b 8f 33 ca 6e d6 33
       6.616558e-08 9.472105e-08 6.6611335e-08 9.985304e-08
000040 54 a9 e4 2d e4 57 9f 33 b6 93 c4 33 32 e9 ca 33
       2.5995796e-11 7.420002e-08 9.15383e-08 9.448776e-08
000050 55 1c 03 34 3f fc c6 2e 03 d7 33 34 1e 73 16 30
       1.2210633e-07 9.0488055e-11 1.6748895e-07 5.4733273e-10
000060 17 5f d4 2e 4d 88 ce 30 c4 5a 6b 33 e9 a1 bd 33
       9.657535e-11 1.5027212e-09 5.4797752e-08 8.8304496e-08
000070 5d 38 41 2f 6c 9e 0b 2f 57 27 3b 33 5c f1 36 31
       1.7573272e-10 1.2698259e-10 4.357511e-08 2.6621683e-09
000080 d0 61 2e 32 bf 57 aa 33 fa fc 1d 34 51 f4 7b 33
       1.0150373e-08 7.932203e-08 1.4713797e-07 5.8662696e-08
000090 96 de 30 30 f0 b6 f6 34 25 84 f9 32 bb 84 1f 34
       6.434474e-10 4.5954175e-07 2.9047508e-08 1.4856316e-07
0000a0 b8 e4 14 33 dd 48 a1 33 36 bc 13 30 31 84 c4 33
       3.4666954e-08 7.5104005e-08 5.374575e-10 9.151007e-08
0000b0 c3 ab aa 30 ed 0b d7 33 7e c8 0b 30 15 cb c1 2d
       1.2417946e-09 1.0013887e-07 5.085282e-10 2.2031746e-11
0000c0 87 af cb 33 cf a1 aa 32 2e 47 c2 33 8c 08 fe 33
       9.4848524e-08 1.9864187e-08 9.0467765e-08 1.18293514e-07
0000d0 5b 65 8a 2f 52 6e 34 33 0f fe a5 33 e1 a3 15 33
       2.517407e-10 4.200985e-08 7.729624e-08 3.4840813e-08
0000e0 29 d5 0e 30 5a ed 55 32 ad 74 5f 34 9b d5 00 34
       5.196222e-10 1.2452199e-08 2.081094e-07 1.1998638e-07
0000f0 04 36 8d 32 85 14 3c 34 42 35 1f 34 01 97 37 2f
       1.6439124e-08 1.751633e-07 1.4827404e-07 1.66974e-10

exp_avg f4 [32, 64]
000000 f4 47 9c 39 36 89 2e b7 a3 b5 26 b8 fe 26 0f 36
       0.00029808248 -1.0403155e-05 -3.9746647e-05 2.1331357e-06
000010 11 fa bd b8 1a d6 91 bb d3 93 8a 39 4d c1 9b bb
       -9.058801e-05 -0.0044505717 0.0002643155 -0.004753268
000020 cf 9a 01 37 a4 89 fd bb 56 3d 8e b5 0c c5 b9 34
       7.725043e-06 -0.0077373553 -1.0597676e-06 3.4602306e-07
000030 11 90 1d ba c0 8c bd ba e5 19 ba ba 33 8a ad bb
       -0.0006010542 -0.0014461502 -0.0014198391 -0.0052960156
000040 f2 15 82 32 65 ed 24 bb 9e c3 50 bb a0 d5 93 bb
       1.5143971e-08 -0.0025165912 -0.0031854878 -0.00451155
000050 50 53 56 bb ce 6c ff b4 cc af 11 ba 36 28 8f b7
       -0.0032703467 -4.7576617e-07 -0.0005557507 -1.7065653e-05
000060 7f 07 f4 b6 7b 70 12 b7 a9 d8 79 3a c5 69 84 ba
       -7.2726393e-06 -8.728467e-06 0.0009530881 -0.0010102323
000070 bb 8e a0 b5 8d 58 6a b2 4d 0d 34 b8 e2 bc ed b7
       -1.1962469e-06 -1.3640727e-08 -4.292773e-05 -2.8340557e-05
000080 f8 b7 1d b9 76 1f 6c 39 08 a4 13 bb 87 6e 2a bb
       -0.0001504122 0.00022518434 -0.002252819 -0.002600582
000090 a2 f9 f4 b4 07 3c 1f bc 6b 96 87 ba dd 90 03 bb
       -4.5630173e-07 -0.0097189015 -0.0010344511 -0.002007536
0000a0 65 71 25 bb cb d8 7c b8 3c 54 fa b6 c2 8c fb ba
       -0.002524459 -6.0283386e-05 -7.4603868e-06 -0.0019191729
0000b0 8a 62 db b6 d5 d8 a2 bb a8 a8 93 b6 0c 6c 50 b3
       -6.53818e-06 -0.004969696 -4.4005756e-06 -4.8527042e-08
0000c0 e1 7c ce bb 85 79 de b8 f9 b1 79 bb 15 08 1a b9
       -0.006301508 -0.0001060842 -0.0038100465 -0.00014689595
0000d0 a4 cc ab b4 ac 63 82 bb f8 7d 31 39 8f bc 9a bb
       -3.2000128e-07 -0.003979167 0.00016926962 -0.004722185
0000e0 06 c9 e8 b4 20 71 9f b9 42 65 0a bb 0b ee 73 b9
       -4.335963e-07 -0.00030411128 -0.0021117483 -0.00023262964
0000f0 6c 1d 5a bb a5 c7 3e bb b4 30 39 38 38 3b a9 b4
       -0.0033281697 -0.0029110697 4.4152795e-05 -3.152179e-07
000100 3c c7 ec 3a 12 a0 0a 39 f6 f0 b5 ba 35 19 53 b7
       0.0018064748 0.00013220336 -0.0013881016 -1.2582449e-05
000110 93 fd a3 3a 44 cd 13 3b fe 8f 95 39 35 05 09 3b
       0.0012511484 0.0022552768 0.00028526777 0.0020907645
000120 f9 b0 f6 37 37 cf b2 bb 62 7f 2b 39 73 e4 02 39
       2.9407895e-05 -0.005456831 0.00016355285 0.0001248287
000130 85 47 c1 3a a9 72 23 3b 7b 94 35 3b ea 03 86 3a
       0.0014746046 0.002494017 0.002770691 0.0010224555
000140 6d 93 93 b0 ea 5c c3 38 40 cb e0 ba 58 65 ef 39
       -1.0737559e-09 9.315631e-05 -0.0017150417 0.0004566114
000150 c6 5f 28 b9 80 cf 4e b7 e8 69 42 3a 9e 93 3f 38
       -0.00016057407 -1.2326869e-05 0.0007416294 4.5675428e-05
000160 ee b5 00 b0 22 4d d2 b7 f9 03 9f 3a df 31 6e 3b
       -4.6824666e-10 -2.5069869e-05 0.0012131921 0.0036345643
000170 ee af d0 b8 b6 7d c5 38 5e a7 73 3a f6 68 3f 39
       -9.950982e-05 9.4171075e-05 0.0009294654 0.0001825428
000180 bc 7b 5e 3a f0 81 cc b9 aa 57 61 3b 2a 8b b8 3b
       0.0008487066 -0.00039006723 0.0034384527 0.005631824
000190 82 12 7e b8 1c 19 05 3a 5b 96 42 3b 2f 92 fc 3a
       -6.0575556e-05 0.0005077289 0.002969167 0.001926964
0001a0 7c e8 34 bb 2a 00 04 39 17 bc 5a b8 5e 55 5f 3b
       -0.0027604392 0.00012588562 -5.2150423e-05 0.0034077982
0001b0 b7 37 e2 38 5b c0 a0 b9 93 c3 6b b8 7d f7 80 30
       0.000107868975 -0.00030660894 -5.621051e-05 9.383566e-10
0001c0 c5 91 37 bb 04 3c 82 39 e7 4e 94 ba d0 72 2a 39
       -0.002801047 0.00024840247 -0.0011315019 0.00016255234
0001d0 a5 35 98 b8 0d 85 89 39 81 26 a0 39 5f 5c 25 3a
       -7.257917e-05 0.00026229807 0.00030546266 0.0006308015
0001e0 bd e6 29 b8 49 7f 83 3b c9 fb a2 3a 2a d3 8b 3a
       -4.050763e-05 0.0040129763 0.0012434657 0.001066779
0001f0 82 15 fb 3a 2d d2 20 3b 5b c3 cb 3a 26 bc 63 b7
       0.001915619 0.0024539337 0.0015545891 -1.3574061e-05
000200 25 54 48 38 92 10 8c 37 59 66 32 bb 71 25 c2 b6
       4.776208e-05 1.6697017e-05 -0.0027221648 -5.7860093e-06
000210 d8 71 92 b9 5c 1e 22 3c 68 d9 35 38 e3 7a 7a 3b
       -0.0002793211 0.009894934 4.3356238e-05 0.003822022
000220 b2 33 06 35 75 f8 29 3c a7 8b 44 b9 92 91 af b9
       4.9994117e-07 0.010374178 -0.00018744041 -0.0003348706
000230 b4 68 4e 3b 6c 67 8b 38 05 28 c6 b7 b8 70 08 3c
       0.0031495513 6.6473e-05 -2.3622075e-05 0.0083276555
000240 15 d8 3a b7 f3 3f db 3a ae 81 9b 3b b3 2f 30 ba
       -1.1136774e-05 0.0016727432 0.0047456836 -0.0006720975
000250 57 60 c6 3b 78 f1 12 36 ca b8 2a bb a1 3f 12 b7
       0.006053965 2.1896249e-06 -0.0026050084 -8.717093e-06
000260 9d a1 11 b6 a6 6a 45 38 88 1f d5 3a 29 de 75 3b
       -2.1700755e-06 4.7067784e-05 0.0016260007 0.003751645
000270 c1 43 2d b8 10 84 da b8 12 5c c0 3a c5 1f d8 37
       -4.1309515e-05 -0.000104196486 0.0014675877 2.5764e-05
000280 f9 a1 0f 39 7b e3 11 3b 9d 30 3e 3b a3 c9 ac bb
       0.00013697882 0.0022260833 0.0029020675 -0.0052730604
000290 0d d0 70 37 b3 99 26 3c b0 21 28 3a e5 02 07 bc
       1.4353555e-05 0.010168481 0.0006413711 -0.008240436
0002a0 7d 38 92 3b 3b a4 01 3b 57 21 ab 36 ee c5 1f b8
       0.0044623003 0.0019781727 5.1000784e-06 -3.809289e-05
0002b0 75 76 75 37 5a 08 0a bb cc eb b1 37 4b 7d 25 2f
       1.4630718e-05 -0.0021062107 2.1209846e-05 1.5051176e-10
0002c0 1c 36 ab 3b c9 1a 77 ba ea a7 11 3c e4 3b 4f ba
       0.005224956 -0.00094262935 0.0088901315 -0.0007905348
0002d0 2b 40 da 37 20 67 36 bb 60 14 16 b9 3e 69 1f 3b
       2.6017506e-05 -0.0027832463 -0.00014312705 0.0024324204
0002e0 b8 24 56 38 b2 12 b8 3a 2e c3 82 39 9e 0b 8b 3b
       5.1055773e-05 0.0014043658 0.00024940952 0.0042433282
0002f0 36 b1 5b 39 bd 00 0b b9 47 c1 02 bb dd ce a1 b6
       0.00020951484 -0.00013256348 -0.0019951628 -4.822256e-06
000300 9a e4 85 ba 82 ad 54 b8 00 b0 83 bb 7b 2a a7 b6
       -0.0010215223 -5.070633e-05 -0.0040187836 -4.981933e-06
000310 c5 52 fa 38 7e d5 21 bb 79 25 db b9 8a a7 32 3a
       0.00011936346 -0.0024693902 -0.00041798854 0.00068151264
000320 5d 4b d6 b7 c6 a0 cd 3b 9d bf 7b b6 7b 3b 80 b9
       -2.5545882e-05 0.006275269 -3.7513448e-06 -0.0002445838
000330 02 61 17 39 73 bc ce b9 4b f3 87 39 c1 3b 7f 3b
       0.0001443662 -0.00039431787 0.00025930474 0.0038945528
000340 99 7d 78 b7 75 7e 4a 3a 77 dc 07 3b 01 ca d9 3a
       -1.4811195e-05 0.0007724532 0.0020730773 0.0016615988
000350 62 88 2d 3c 3b eb ae 37 84 3c 85 b9 09 f0 1c b9
       0.010591598 2.0851954e-05 -0.00025412824 -0.0001496674
000360 36 aa 20 b7 a6 56 b0 b7 0c d9 7a ba 71 b1 7f 3b
       -9.5763735e-06 -2.1021184e-05 -0.00095690857 0.0039015675
000370 53 74 86 38 95 cf dc b8 58 de 51 3a 58 a3 d5 b9
       6.411285e-05 -0.00010529083 0.0008005849 -0.00040748226
000380 d3 b3 4c 39 fa 14 8a 3a 56 27 29 3b 51 44 79 3b
       0.00019521946 0.0010534816 0.00258108 0.0038035105
000390 79 11 68 38 64 5a a4 3b fc ef 91 ba 30 ee 33 bb
       5.5329383e-05 0.005015658 -0.0011134143 -0.0027455203
0003a0 7f cb c5 3b 4f e6 0d 39 ad 52 82 b8 a5 5d c1 3a
       0.0060362215 0.00013532604 -6.2142826e-05 0.001475264
0003b0 1b 67 69 b7 cd 39 fd 3a 7f 2d a0 38 e7 ce 5c b3
       -1.3911888e-05 0.0019319594 7.637869e-05 -5.1410918e-08
0003c0 f0 72 be 3a b5 3a 8c ba c9 36 2a 3b 58 ad 17 ba
       0.0014530104 -0.0010698648 0.0025972596 -0.0005786023
0003d0 b8 fd 66 38 b5 fd c8 ba 38 6c a4 ba fa a0 4e 3b
       5.5072567e-05 -0.00153344 -0.0012544459 0.0031529055
0003e0 7b 61 e8 b5 01 98 09 ba f2 3c 05 37 6a 0f 99 3b
       -1.7313718e-06 -0.00052487856 7.941608e-06 0.004671027
0003f0 62 87 99 3a 88 2f 8e 3a d4 a2 84 39 2f 7d f4 b6
       0.0011713321 0.0010847906 0.00025298318 -7.28634e-06
