checkpoints/hypo_model.pt (torch, 49378 bytes, 15 tensors)

net.0.weight f4 [64, 20]
0	0xbeabadc6	-0.33531016
1	0xbce388d5	-0.027775208
2	0xbdb3a849	-0.08772332
3	0x3e12e1b5	0.14343913
4	0xbe58c4e1	-0.21168853
5	0xbc12d63b	-0.008962209
6	0xbd07208c	-0.032990023
7	0xbd0534ca	-0.032521047
8	0x3d9762c0	0.07391882
9	0xbb45599c	-0.0030113226
10	0x3dc6f13f	0.09713983
11	0x3ebf4edb	0.3736485
12	0xbcf9aca4	-0.03047783
13	0x3e3b1ab2	0.18271902
14	0xbd3f305b	-0.046676975
15	0x3bb3c68a	0.005486314
16	0x3f0f1e5d	0.55905706
17	0xbe919dce	-0.28440708
18	0x3e0255e6	0.1272808
19	0x3d910902	0.07081796
20	0xbb807e8a	-0.0039213346
21	0xbe2a34a8	-0.1662165
22	0x3df0fa30	0.117664695
23	0xbd9fd86b	-0.0780495
24	0x3c84cd88	0.016211286
25	0x3d628f77	0.0553126
26	0xbe178f94	-0.14800864
27	0xbdeb080d	-0.11476145
28	0x3e081e73	0.13292865
29	0x3da01a92	0.07817568
30	0xbdf717b0	-0.12065065
31	0xbb263fb5	-0.0025367562
32	0x3d2ee578	0.042699307
33	0xbd6f628a	-0.058443584
34	0xbba15456	-0.0049233837
35	0x3e214a97	0.1575111
36	0xbed13595	-0.40861192
37	0x3e559ce5	0.20860632
38	0xbe8249c1	-0.25446895
39	0x3d83ebdf	0.06441473
40	0xbd96149e	-0.07328151
41	0xbd980b44	-0.07424024
42	0x3cbadb83	0.02280975
43	0x3dbb9ab3	0.09160366
44	0x3d86a91a	0.06575222
45	0xbd770097	-0.060303297
46	0x3d88b95b	0.06675979
47	0x3d0bbed8	0.03411755
48	0xbd42f440	-0.047596216
49	0x3ce61cde	0.028089937
50	0xbe66e548	-0.22548401
51	0xbe5f7c4e	-0.21824762
52	0xbdda64c2	-0.10663749
53	0xbe4193dd	-0.18904062
54	0xbe0dcbb3	-0.13847236
55	0xbd3ebf48	-0.04656914
56	0xbf1b993f	-0.6078071
57	0x3ee19e2c	0.44065988
58	0xbe2e9fe2	-0.17053178
59	0x3e1f16a9	0.15535988
60	0x3d125f4c	0.035735413
61	0x3d2daae3	0.0423993
62	0xbe959f9d	-0.29223338
63	0xbe5048a3	-0.20340209
64	0xbe108f1f	-0.14117096
65	0x3c7dc33d	0.015488443
66	0x3db7a29f	0.089665644
67	0x3ce50666	0.027957153
68	0xbdbbb863	-0.09166028
69	0x3b17d660	0.002316855
70	0xbdcc5fd4	-0.09979215
71	0xbea1f801	-0.31634524
72	0xbe2bbda3	-0.1677156
73	0xb966cdb1	-0.00022011135
74	0xbe750390	-0.2392714
75	0xbe2b0f1b	-0.16704981
76	0x3d71f3c7	0.059070375
77	0x3ea99e37	0.3312852
78	0xbe1a6d44	-0.15080744
79	0xbe457989	-0.19284643
80	0x3e245a12	0.16049984
81	0x3c9e4745	0.019321093
82	0x3d8dc5ab	0.06922468
83	0xbdb8dc7b	-0.09026428
84	0xbcb9a18a	-0.022660036
85	0x3ec0ad0d	0.37632027
86	0x3da9c8d1	0.08290256
87	0x3d71980a	0.058982886
88	0xbc1b3048	-0.00947196
89	0x3d8f956c	0.07010922
90	0x3d314b6a	0.04328481
91	0x3e2a36e1	0.16622497
92	0xbe5280d4	-0.20556957
93	0x3e72959f	0.23689888
94	0x3e1fea0b	0.15616624
95	0x3e644a73	0.22294025
96	0x3eb98b0f	0.36238906
97	0xbe720b7f	-0.23637198
98	0x3e3fce8b	0.18731134
99	0xbd8a95f6	-0.06766884
100	0xbdee41b7	-0.11633628
101	0x3e935b96	0.28780812
102	0x3e1fee07	0.15618144
103	0xbdd03b24	-0.1016753
104	0xbce48177	-0.027893765
105	0x3e3d5fdd	0.184936
106	0xbdd901cd	-0.105960466
107	0x3c928acb	0.017888447
108	0x3db1a204	0.0867348
109	0xbe0833f1	-0.13301064
110	0xbe7e215e	-0.24817416
111	0xbde66dc4	-0.11251405
112	0x3db57539	0.08860249
113	0x3e064e14	0.13115722
114	0xbd6da714	-0.058020666
115	0xbdeffbd4	-0.11717954
116	0xbda47f5b	-0.08032104
117	0x3df1fb30	0.11815488
118	0x3b877f48	0.004135046
119	0xbd69c36a	-0.057071127
120	0x3e793f5d	0.24340577
121	0x3da0d43f	0.07852983
122	0xbc05a05f	-0.008155911
123	0xbddef493	-0.108864926
124	0xbc8c8fee	-0.017158475
125	0xbdf1fb34	-0.11815491
126	0xbe0e812b	-0.13916461
127	0xbdd4f01f	-0.10397362
128	0x3e858465	0.26077572
129	0x3c701611	0.014653699
130	0x3e6e46af	0.23269151
131	0xbd99b95f	-0.0750606
132	0x3cf31d9d	0.029677207
133	0x3e3d4033	0.18481521
134	0x3e70e320	0.23524141
135	0x3ecb15eb	0.3966516
136	0xbe474ff3	-0.19464092
137	0xbe1628ef	-0.14664052
138	0x3d505260	0.05085981
139	0xbdd648db	-0.10463115
140	0xbed49abb	-0.415243
141	0xbc10502d	-0.008808178
142	0xbd4e2004	-0.0503235
143	0x3df880e7	0.12133961
144	0x3ae09b36	0.00171361
145	0x3d9d3f37	0.07678073
146	0x3d893459	0.06699438
147	0xba7a676a	-0.0009552153
148	0xbdd7315a	-0.1050746
149	0xbced5f53	-0.028976118
150	0x3d4b4d3f	0.049634214
151	0xbe55a30e	-0.20862982
152	0xbe3d93aa	-0.1851336
153	0xbd97eeb9	-0.074185796
154	0xbe0e543b	-0.13899319
155	0xbe62b0c7	-0.22137748
156	0xbe4e00aa	-0.20117441
157	0xbd6d0d5b	-0.057874065
158	0x3e03cc36	0.12870869
159	0x3b33d4ef	0.002744015
160	0xbde906a4	-0.1137822
161	0x3e4bc165	0.19897993
162	0xbe064d74	-0.13115484
163	0x3e3bd511	0.18342997
164	0xbd6501b2	-0.05590982
165	0x3e1d928a	0.15387931
166	0xbcd5ea07	-0.02611257
167	0xbe040590	-0.12892747
168	0xbccbac6f	-0.024862496
169	0x3b86e8dc	0.0041171145
170	0xbdcb77f9	-0.09934992
171	0x3ef5d456	0.48013562
172	0xbe4ced9a	-0.20012513
173	0x3e9dc6ac	0.30815637
174	0xbdae5551	-0.085123666
175	0xbe994d15	-0.2994162
176	0x3eb24602	0.34819037
177	0xbed32f2e	-0.41246933
178	0x3d99f832	0.075180426
179	0x3de90356	0.113775894
180	0xbd8c2dd4	-0.068446785
181	0x3c85d40f	0.016336469
182	0x3ca51e32	0.020156
183	0xbdaaebc4	-0.0834575
184	0x3d54484f	0.05182677
185	0x3d115b73	0.035487603
186	0xbd63f3c8	-0.05565241
187	0x3e46ac7b	0.19401734
188	0xbd8b6852	-0.06807007
189	0xbe19a10c	-0.15002841
190	0xbe411822	-0.18856862
191	0x3e0de8ef	0.13858388
192	0x3da44e52	0.08022751
193	0x3dcd2624	0.1001704
194	0xbe3136d1	-0.17306067
195	0xbd9ff5c2	-0.078105465
196	0x3c89d40c	0.016824745
197	0xbe76336a	-0.2404305
198	0x3c0ccaff	0.00859332
199	0xbd81e153	-0.06341805
200	0xbdcc6fbd	-0.0998225
201	0x3d763b6f	0.060115274
202	0xbe4cee79	-0.20012845
203	0xbe5173aa	-0.20454279
204	0xbdcb380f	-0.09922802
205	0x3d1a74de	0.03770911
206	0x3d5c813f	0.053834196
207	0x3da7fb2e	0.082022056
208	0xbe0cf71a	-0.13766137
209	0x3ccff0aa	0.025383312
210	0x3d687c9d	0.056759465
211	0x3cd1cba8	0.025609806
212	0xbe3b776f	-0.18307279
213	0xbeac46f3	-0.3364788
214	0xbec234aa	-0.37930804
215	0xbe997ebe	-0.2997951
216	0x3cc5ee8c	0.0241616
217	0x3da3f4f3	0.08005705
218	0xbc684fcd	-0.014179182
219	0x3d7390ec	0.05946438
220	0xbe813579	-0.2523611
221	0xbd813876	-0.06309597
222	0x3dae90b2	0.08523692
223	0x3e0cdad8	0.13755357
224	0xbd00ab8c	-0.0314136
225	0x3deb3923	0.11485507
226	0xbe5ec258	-0.21753824
227	0xba9a62b4	-0.0011778683
228	0xbcdbdbeb	-0.026838263
229	0xbbfe3950	-0.007758297
230	0x3e157818	0.14596593
231	0xbdac0356	-0.08399074
232	0x3e16d98f	0.1473143
233	0xbd272c7d	-0.04081391
234	0xbdb4b6c2	-0.08823921
235	0xbc24e3e1	-0.010064096
236	0xbeae7366	-0.34072417
237	0xbd0c3ba0	-0.03423655
238	0xbdd2bbda	-0.10289736
239	0xbd88ec89	-0.066857405
240	0x3d84c713	0.06483283
241	0x3e78d94c	0.24301642
242	0x3e2cdc4c	0.16880912
243	0x3e69d925	0.2283674
244	0x3aea2b2b	0.0017865648
245	0x3e051d95	0.12999566
246	0x3e7578f6	0.23971924
247	0x3e595ecb	0.21227567
248	0xbe504ae0	-0.20341063
249	0x3d2bef62	0.04197634
250	0xbe938592	-0.28812844
251	0xbe0f59b3	-0.13999061
252	0xbe06e441	-0.1317301
253	0x3da8b145	0.082369365
254	0x3dcbbd0d	0.09948168
255	0xbdefcfcb	-0.11709555

net.0.bias f4 [64]
0	0x3e9394ef	0.28824565
1	0x3d8e2454	0.06940523
2	0xbedd5974	-0.4323231
3	0xbe55448e	-0.20826933
4	0xbe30158b	-0.17195718
5	0x3e60712a	0.21918169
6	0xbe6c58ba	-0.23080721
7	0x3ed81906	0.4220659
8	0xbe467218	-0.19379461
9	0x3e9f4481	0.31106952
10	0xbed650b4	-0.41858447
11	0x3e121cea	0.14268842
12	0xbdfeec04	-0.1244736
13	0x3eaeb418	0.34121776
14	0xbeaeffa5	-0.34179416
15	0x3ea24622	0.31694132
16	0xbe72246d	-0.23646708
17	0x3e643d3f	0.22288989
18	0xbe4fc5d1	-0.20290305
19	0x3ea9cdba	0.3316477
20	0xbee7b9f5	-0.4525906
21	0xbee6b3f8	-0.4505918
22	0x3e80bdec	0.251449
23	0xbe24116d	-0.16022272
24	0xbd46482a	-0.048408665
25	0x3e4f905f	0.20269917
26	0xbebedd1c	-0.37278068
27	0xbe3ed034	-0.1863411
28	0x3e32b559	0.17451991
29	0xbd570587	-0.052495506
30	0xbeb263b3	-0.3484169
31	0xbea29502	-0.3175431
32	0xbef78044	-0.48340046
33	0xbe368ff4	-0.17828351
34	0xbcf244e0	-0.029573858
35	0xbe920be4	-0.28524697
36	0x3eb5cbcf	0.35507056
37	0xbeebebb0	-0.46078253
38	0xbdf3af1f	-0.11898636
39	0xbdf85e61	-0.12127376
40	0xbede3dd9	-0.4340656
41	0x3e79f4ee	0.2440984
42	0x3ea582e0	0.32326412
43	0xbd740fb1	-0.059585277
44	0xbea6fcdd	-0.32614794
45	0x3dda5bbe	0.1066203
46	0xbecd7e57	-0.40135452
47	0x3eb560c8	0.354254
48	0xbee4a646	-0.44658107
49	0xbdf574a1	-0.11985136
50	0x3e96adc5	0.2942945
51	0xbdb43dab	-0.08800825
52	0x3e78e973	0.24307804
53	0xbebb3f40	-0.36571693
54	0xbee44468	-0.4458344
55	0xbe96fcde	-0.29489797
56	0xbe96c6e1	-0.29448608
57	0xbdfdb744	-0.12388471
58	0xbde20a09	-0.1103707
59	0x3ea4d571	0.32194093
60	0xbee26996	-0.4422118
61	0x3e2a748a	0.16646019
62	0xbd30e4a8	-0.043186814
63	0xbe34c7ba	-0.17654315

net.3.weight f4 [32, 64]
0	0xbae936b4	-0.0017792792
1	0x3db839bd	0.08995388
2	0xbe2184f3	-0.15773372
3	0xbe2c458f	-0.1682341
4	0xbdcbd8a9	-0.09953434
5	0xbd73f925	-0.059563775
6	0xbd0d5187	-0.03450158
7	0x3d3c1834	0.04592152
8	0x3ca32a1d	0.019917542
9	0x3d34dc7e	0.04415559
10	0xbe3beef7	-0.18352877
11	0xbc96f207	-0.018425955
12	0x3e3a598b	0.1819822
13	0x3be8cdbc	0.0071046036
14	0xbe3511d2	-0.17682579
15	0x3c510788	0.012758143
16	0x3dfb515f	0.1227138
17	0x3dd0f735	0.10203401
18	0xbde783e4	-0.11304453
19	0x3e26a78a	0.16274849
20	0xbe806398	-0.25075984
21	0xbe534452	-0.20631531
22	0x3ce15faa	0.027511436
23	0x3dbbfa74	0.091786295
24	0xbd82396d	-0.06358609
25	0xbd44d866	-0.048057936
26	0xbde505b7	-0.11182731
27	0x3ba5db5e	0.005061551
28	0x3e649edd	0.22326227
29	0xbe1b6968	-0.15176928
30	0xbe3b849d	-0.18312307
31	0xbe3eef27	-0.18645917
32	0xbe73f882	-0.23825267
33	0xbbaa76e3	-0.0052021607
34	0xbcb2f1dc	-0.021843843
35	0xbe482b99	-0.19547881
36	0x3d8bda7d	0.06828783
37	0xbe49bb12	-0.19700268
38	0xbc9816cb	-0.018565556
39	0xbd1dee6f	-0.038557466
40	0xbea8a567	-0.32938692
41	0x3e024cb1	0.12724568
42	0x3d14d43a	0.036335208
43	0x3cd03512	0.02541593
44	0xbe5923f6	-0.21205124
45	0x3d881651	0.066448815
46	0xbdd43c20	-0.103630304
47	0x3d2b1d8c	0.041776225
48	0xbe4c36ba	-0.19942752
49	0xbc92b741	-0.017909648
50	0xbcb3e569	-0.021959977
51	0xbe069650	-0.13143277
52	0x3e30c99d	0.1726441
53	0xbdf8d572	-0.121500865
54	0xbef7636e	-0.48318046
55	0xbe00940c	-0.12556475
56	0xbe18a364	-0.14906079
57	0x3c019bb1	0.007910655
58	0x3c280095	0.010254045
59	0x3d951964	0.072802335
60	0xbe927a26	-0.28608817
61	0x3db5ba24	0.08873394
62	0xbdf182aa	-0.117925
63	0xbd5fc95d	-0.054635394
64	0xbec16bd2	-0.37777573
65	0x3e2debac	0.16984433
66	0x3e7ca416	0.24671969
67	0x3ddcfe1a	0.107906535
68	0xbe0984f8	-0.1342963
69	0x3d10fae5	0.03539552
70	0xbe1b8cc4	-0.15190417
71	0x3ddebd46	0.10875945
72	0xbf31d11b	-0.69459695
73	0xbe200532	-0.15626982
74	0xbd820d07	-0.06350141
75	0x3d23145c	0.039814338
76	0x3d9daab6	0.07698576
77	0xbd007d22	-0.031369336
78	0xbd91b210	-0.07114041
79	0x3da18aae	0.07887779
80	0xbeb3bac4	-0.35103428
81	0xbeaea51b	-0.3411034
82	0x3dc19368	0.09451944
83	0x3dd2b8b8	0.102891386
84	0xbe2e99b4	-0.1705082
85	0x3e00d8d5	0.12582715
86	0xbe84704f	-0.25866935
87	0xb9d8d115	-0.0004135451
88	0x3e2a1220	0.16608477
89	0xbe98c2ba	-0.29836065
90	0xbcdedfe4	-0.027206369
91	0x3dbc28ae	0.091874465
92	0x3d9fa33c	0.07794806
93	0xbe83e375	-0.25759473
94	0xbc82bd30	-0.015959352
95	0x3d84533a	0.06461187
96	0x3e8ae21b	0.2712563
97	0xbd342e88	-0.04398969
98	0x3c6a2044	0.014289919
99	0x3d6395d6	0.055562817
100	0xbc5746b1	-0.013139413
101	0x3e084d31	0.13310696
102	0x3d2b683d	0.041847456
103	0x3dcebb97	0.10094374
104	0x3ce9342a	0.028467257
105	0xbdc6ce4e	-0.09707318
106	0xbdab9a7b	-0.08379074
107	0xbe4066c1	-0.18789198
108	0x3d1ad122	0.0377971
109	0x3d897ca1	0.06713224
110	0x3e1b7476	0.15181145
111	0xbc3a4282	-0.011368396
112	0xbde0cefe	-0.109769806
113	0xbbb0ef32	-0.005399608
114	0xbe1731e7	-0.1476513
115	0xbcf8b6b3	-0.030360555
116	0x3dcaaf71	0.09896744
117	0x3daf3dc4	0.08556703
118	0x3da20872	0.07911767
119	0xbe114534	-0.14186555
120	0x3cefc99b	0.029270938
121	0x3eade673	0.3396488
122	0xbe90d3b6	-0.28286523
123	0xbe2b5fa8	-0.16735709
124	0x3e13c8f0	0.1443212
125	0x3e32fcbe	0.17479226
126	0x3e6c51a6	0.23078021
127	0x3bc0036a	0.005859782
128	0xbea87fa6	-0.32909888
129	0x3dfe1347	0.124060206
130	0x3de397dd	0.1111295
131	0x3d8048b1	0.06263865
132	0xbdfbe6d6	-0.12299888
133	0x3c285ae3	0.010275575
134	0xbc3ee931	-0.011652277
135	0x3bd1ebf5	0.006406302
136	0xbef51eee	-0.4787516
137	0x3cda5fb4	0.026656963
138	0xbd9faa1e	-0.07796119
139	0x3e1cc8fe	0.15311047
140	0x3e465842	0.19369605
141	0xbc899b18	-0.016797587
142	0x3df86821	0.12129236
143	0x3e09f219	0.13471259
144	0xbeaa36e6	-0.3324501
145	0xbdf05872	-0.117356196
146	0x3d901bb5	0.07036535
147	0xbddc3552	-0.107523575
148	0x3d815ecd	0.0631691
149	0x3dcb286d	0.0991982
150	0xbbb9019d	-0.0056459443
151	0x3cd491e9	0.025948482
152	0x3d9a73a3	0.07541587
153	0xbca71e12	-0.02040008
154	0x3e28bcd0	0.16478276
155	0x3d8993e2	0.067176595
156	0xbcdd1a98	-0.02699022
157	0xbea7a082	-0.32739645
158	0x3dd0fed6	0.10204856
159	0x3e1651f9	0.14679708
160	0x3e14c293	0.14527349
161	0x3c976be5	0.018484065
162	0x3cb6943e	0.022287484
163	0x3daa18d9	0.083055206
164	0xbd952268	-0.07281953
165	0x3de8d528	0.11368781
166	0x3d1e51c5	0.0386522
167	0x3dd260e7	0.10272389
168	0xbd359262	-0.044329055
169	0x3d844dd6	0.064601585
170	0x3df5829c	0.119878024
171	0x3e10732f	0.14106439
172	0x3d75161b	0.059835535
173	0x3df2786b	0.11839374
174	0x3e528558	0.20558679
175	0xbe139014	-0.1441043
176	0x3e20c655	0.15700658
177	0xba612e71	-0.0008589989
178	0x3d004946	0.03131988
179	0xbb7ac614	-0.0038265036
180	0x3d7ffa53	0.062494587
181	0x3bb2e47d	0.005459367
182	0x3de2e402	0.11078645
183	0xbe1f71c8	-0.15570748
184	0x3d969c15	0.07353989
185	0x3d8d5257	0.06900471
186	0xbe08d189	-0.13361181
187	0xbe522b4a	-0.20524326
188	0x3dfee2ae	0.124455795
189	0x3d0b879b	0.03406487
190	0x3cb7619a	0.022385407
191	0x3c6e348d	0.014538896
192	0x3d703e6b	0.058653276
193	0x3d1b6f6d	0.03794806
194	0xbe5b3135	-0.2140549
195	0xbe790e5a	-0.24321881
196	0xbd04c8df	-0.032418128
197	0x3d18c394	0.037295893
198	0xbd7bc318	-0.061465353
199	0x3b76a897	0.0037637108
200	0xbdaf103e	-0.0854802
201	0x3d11d7fc	0.03560637
202	0xbea770f6	-0.3270337
203	0x3e1cea30	0.1532371
204	0x3ddcf353	0.10788598
205	0x3e244801	0.16043092
206	0xbe36bf7e	-0.17846486
207	0x3ce2b30a	0.027673263
208	0xbdf169e4	-0.11787775
209	0xbc0623e6	-0.00818727
210	0xbd3b1cfa	-0.04568193
211	0x3e359f0b	0.17736451
212	0xbe7a9214	-0.24469787
213	0xbcc4b038	-0.024009809
214	0xbd986a4e	-0.07442151
215	0x3dd03f8c	0.101683706
216	0x3d68fed9	0.056883667
217	0xbd00d32a	-0.03145138
218	0xbe0b556f	-0.13606809
219	0xbe42f9ac	-0.19040555
220	0x3e3acf09	0.1824304
221	0x3dc4bcfb	0.09606358
222	0xbe803bdb	-0.25045666
223	0xbda7cdbe	-0.08193539
224	0xbde0c795	-0.10975567
225	0xbdbf4a71	-0.093403704
226	0xbd43653a	-0.04770396
227	0xbe716747	-0.23574553
228	0x3b3b4940	0.0028577596
229	0xbe448e53	-0.19194917
230	0xbe6bd417	-0.23030125
231	0xbd4e1d82	-0.05032111
232	0xbeadb577	-0.3392751
233	0x3e0e7c55	0.13914616
234	0x3c254187	0.010086424
235	0x3d1022e3	0.03518952
236	0xbe66f95b	-0.22556059
237	0x3d057c4c	0.03258924
238	0xbe0123f2	-0.12611368
239	0xbd38decc	-0.04513435
240	0xbe81b175	-0.253307
241	0xbd2e1dab	-0.042508762
242	0x3de8efe4	0.113738805
243	0xbc1f27e5	-0.009714101
244	0x3d2f8ccf	0.042858895
245	0xbe09d8d0	-0.13461614
246	0xbec0e5ec	-0.37675416
247	0xbcf073e1	-0.02935213
248	0xbe673af7	-0.22581087
249	0x3db21935	0.08696214
250	0x3ce80241	0.028321387
251	0x3d664517	0.056218233
252	0xbe433ab1	-0.19065358
253	0x3e0e9a0e	0.13925955
254	0x3dd3c683	0.103405975
255	0xbdda3dd7	-0.10656326

net.3.bias f4 [32]
0	0x3e9f9d2b	0.31174597
1	0xbde781ae	-0.11304031
2	0x3d82484d	0.063614465
3	0x3e1377c0	0.1440115
4	0x3eb3a486	0.3508646
5	0x3e6f6fab	0.23382442
6	0x3d603fa8	0.054748207
7	0x3e99605e	0.29956335
8	0xbdccb450	-0.099953294
9	0xbde0913b	-0.109652005
10	0xbd5546ba	-0.052069403
11	0x3ea7adba	0.3274973
12	0x3e9ddd9f	0.30833146
13	0x3e77da6b	0.24204414
14	0xbd62f3c8	-0.05540827
15	0x3d2e7424	0.04259123
16	0x3d951650	0.072796464
17	0x3e9bd48a	0.30435592
18	0xbd681076	-0.056656323
19	0x3e8c72bd	0.27431288
20	0x3e90ebed	0.28304997
21	0x3e68f1bd	0.22748466
22	0x3ecf0dcc	0.40440214
23	0x3e908cd9	0.28232458
24	0x3e8a754c	0.27042615
25	0x3dffbe2b	0.124874435
26	0x3dca8a9f	0.09889721
27	0x3d6becc8	0.05759886
28	0xbe087a83	-0.13327985
29	0x3df0b88b	0.11753949
30	0x3e842800	0.25811768
31	0x3dc5787e	0.09642123

net.6.weight f4 [1, 32]
0	0x3ecf440b	0.404816
1	0xbecc738f	-0.39931914
2	0xbead926d	-0.33900777
3	0x3edcf2f1	0.431541
4	0x3ec56124	0.38550675
5	0x3ec70e18	0.3887794
6	0xbebb8ccd	-0.3663086
7	0x3ea67dc3	0.32517824
8	0xbeac411a	-0.3364342
9	0xbee58862	-0.44830614
10	0xbe95ea7f	-0.2928047
11	0x3eb6436d	0.35598317
12	0x3e81b8de	0.25336355
13	0x3ef21603	0.4728242
14	0xbe990f72	-0.29894596
15	0x3e5d3ef1	0.21606041
16	0xbe9b96c4	-0.30388463
17	0x3ec12d15	0.37729707
18	0xbe786609	-0.24257673
19	0x3ee0f860	0.43939495
20	0x3eddb66f	0.43303248
21	0x3f010074	0.50391316
22	0x3ea416d8	0.32048678
23	0x3ee85539	0.4537752
24	0x3ef3d6c2	0.47624785
25	0xbe983f12	-0.2973562
26	0xbebdfef1	-0.37108567
27	0x3e9a5fa5	0.30151096
28	0xbec53d45	-0.38523307
29	0x3eb80cc5	0.35947242
30	0x3eadf982	0.33979422
31	0x3e52e9d1	0.20597006

exp_avg f4 [64, 20]
0	0xbb0d5d41	-0.0021570476
1	0xba161d58	-0.00057264185
2	0xbaa0252d	-0.001221811
3	0xbabdf802	-0.0014493468
4	0x3a6ff3cc	0.0009153455
5	0x3a800f05	0.0009770101
6	0xbb55a82c	-0.003260146
7	0x3b047683	0.002021224
8	0x39a135a6	0.00030748284
9	0xba468d97	-0.0007574199
10	0xbb3989bd	-0.0028310858
11	0xbb3a569c	-0.002843297
12	0xbade416a	-0.0016956751
13	0xbb449ab5	-0.002999944
14	0xb8129844	-3.495092e-05
15	0xbb12f759	-0.0022425263
16	0xbb20b59f	-0.0024522317
17	0xba7c44c9	-0.0009623287
18	0xbb23efd3	-0.0025014773
19	0x3abc7b71	0.001438005
20	0xb91e4899	-0.00015095099
21	0xb9c0fac3	-0.00036807926
22	0xb80c58e4	-3.3461387e-05
23	0xb9b6c1f7	-0.0003485826
24	0xb8894d1d	-6.5470325e-05
25	0xb9e589b9	-0.00043780895
26	0xba3b93f9	-0.00071555335
27	0x37d5f0a4	2.5503636e-05
28	0xba41b8b7	-0.00073898904
29	0xbad93c66	-0.0016573786
30	0x382e4609	4.1550058e-05
31	0xb97304c6	-0.00023176064
32	0x39f668af	0.00046998772
33	0x393f371d	0.00018235711
34	0xb92552e8	-0.00015766511
35	0xb95ee658	-0.0002125738
36	0x38d1151a	9.969827e-05
37	0xb988ab95	-0.0002606778
38	0xb88a8ae9	-6.606227e-05
39	0x39d6336e	0.0004085558
40	0x3b2d397d	0.002643197
41	0x39d6cf14	0.00040971546
42	0x3b288e68	0.0025719646
43	0x3afaabf9	0.0019124738
44	0xb9bf87bb	-0.00036531486
45	0xbb656635	-0.0035003547
46	0xb948917a	-0.0001912768
47	0xbb5309e0	-0.003220193
48	0xbb217817	-0.002463823
49	0x3ac05332	0.0014673232
50	0x3b3ffe02	0.0029295688
51	0x3a85c0f7	0.0010204603
52	0x3b3b2ef4	0.0028561922
53	0x3b3d4ad5	0.0028883715
54	0x382355ff	3.894232e-05
55	0x3b2861ad	0.0025692985
56	0x3a90c3de	0.0011044701
57	0x3ad8fbb6	0.0016554508
58	0x3b0ed836	0.0021796352
59	0xb9021bf0	-0.00012408174
60	0x3abd40cf	0.001443887
61	0x3a1d113b	0.0005991642
62	0x38fccef6	0.00012054846
63	0x3abcceef	0.0014404933
64	0x3a4ee35a	0.00078921544
65	0xba8d6540	-0.0010787621
66	0xbab3abb4	-0.0013707788
67	0xba381271	-0.0007021791
68	0xba92b8ce	-0.0011193992
69	0x39664716	0.00021960991
70	0x3ab77a42	0.0013998228
71	0x39d2588d	0.00040120297
72	0x3aa3d0b7	0.0012498115
73	0x3a9b1f5d	0.0011834909
74	0x3a80eac7	0.0009835594
75	0x3ac8e5cf	0.0015327277
76	0x39939153	0.000281463
77	0x3a9fb3f8	0.0012184372
78	0x3a82e92c	0.0009987704
79	0x3a84a575	0.0010120111
80	0x3a922368	0.0011149468
81	0xb8b31013	-8.538379e-05
82	0x3acfdf2e	0.0015859359
83	0x3a31a49c	0.0006776543
84	0xb9e8f585	-0.00044433415
85	0x3a7f213e	0.00097324315
86	0xb986aae5	-0.00025685798
87	0x3a529fa5	0.0008034653
88	0x3876045d	5.8655034e-05
89	0xb885434e	-6.354471e-05
90	0x3a9513f0	0.001137374
91	0xb9adcae2	-0.0003314829
92	0x3ad00cca	0.0015872952
93	0x3a4b951e	0.00077660556
94	0xb9680687	-0.00022127676
95	0x3a9af453	0.0011822082
96	0xb930d23f	-0.00016862991
97	0x3ac73d54	0.0015200772
98	0x3a6406e5	0.0008698537
99	0xba117630	-0.00055489223
100	0xb95bbf70	-0.00020956784
101	0x39b33818	0.00034183334
102	0x383a03a4	4.4349246e-05
103	0x36bf18e7	5.6951426e-06
104	0xba43530d	-0.0007451035
105	0x398bda40	0.00026674755
106	0xb97ffb50	-0.00024412316
107	0x3a300b89	0.0006715586
108	0x3986ec6a	0.00025734614
109	0xb8bfbedb	-9.143139e-05
110	0xb9365230	-0.0001738749
111	0x387ec69c	6.074329e-05
112	0xb99c9dd2	-0.00029872224
113	0x39456d00	0.0001882799
114	0xba3e313f	-0.0007255263
115	0xb9d1245e	-0.00039890682
116	0xb9104018	-0.00013756787
117	0xb9722bdf	-0.00023095262
118	0x3986492c	0.0002561299
119	0xb98ae3c8	-0.0002649112
120	0x3a9124d4	0.0011073598
121	0xb99f6db0	-0.00030408567
122	0x3aa98b77	0.001293524
123	0x394d301a	0.00019568243
124	0xb8d1128b	-9.9693505e-05
125	0xbb002fda	-0.0019559772
126	0x3ab602ed	0.001388637
127	0xbb309c00	-0.0026948452
128	0x393691bc	0.00017411163
129	0x3b0e92e6	0.0021755039
130	0x3afe1a23	0.0019386451
131	0x39797c2e	0.00023792751
132	0x3ac0b33e	0.0014701856
133	0x396dea05	0.0002268926
134	0x3aeeadd0	0.0018209759
135	0x3ad75c69	0.0016430739
136	0xb9dbffd4	-0.00041961542
137	0x3b6df533	0.003630948
138	0x39582eca	0.00020616796
139	0x3a5ea84e	0.0008493707
140	0xbac74a69	-0.0015204671
141	0x39b83b61	0.00035139456
142	0xb994279f	-0.0002825828
143	0xbb008a75	-0.0019613777
144	0xba4e178b	-0.00078617845
145	0xbab2d7ea	-0.001364467
146	0xbb4cc428	-0.0031244848
147	0xb9552208	-0.0002032594
148	0xbb54ca84	-0.0032469342
149	0x39cc09d5	0.00038917238
150	0xbb4cfeee	-0.003127988
151	0xbab60f8b	-0.001389013
152	0xbb111fad	-0.0022144124
153	0xbb1a5065	-0.0023546454
154	0xbad6d070	-0.0016389024
155	0xbb01f4e9	-0.0019829816
156	0x3a6da1a5	0.00090649194
157	0xbb1e8855	-0.0024190147
158	0xb9fc3633	-0.00048105567
159	0xbade1bf6	-0.0016945589
160	0xbb3e7d92	-0.0029066545
161	0xbae37949	-0.0017354871
162	0xbb14d565	-0.00227102
163	0xbb26244e	-0.002535123
164	0xba2f8654	-0.00066957367
165	0x3b227718	0.0024790224
166	0xbb1e5b61	-0.0024163353
167	0x3b2e23de	0.0026571671
168	0x3a264c4b	0.0006343766
169	0xb9bbe437	-0.00035837453
170	0xbb4a71cf	-0.003089059
171	0xbb322f44	-0.0027188817
172	0xbb1c8757	-0.002388438
173	0xbb6cbca1	-0.0036123174
174	0xba4277fe	-0.0007418393
175	0xbb3605eb	-0.0027774523
176	0xbb4d512c	-0.00313289
177	0xba6a1545	-0.0008929561
178	0xbb553563	-0.0032533042
179	0xbae72266	-0.0017634153
180	0xb9a308f8	-0.00031096465
181	0xb991c24e	-0.00027801323
182	0xb9f38350	-0.00046446407
183	0xb9a9c108	-0.0003237801
184	0x3a1985f1	0.00058564456
185	0x3a023aac	0.0004967849
186	0xba29a4bd	-0.00064713863
187	0x3a323f37	0.0006799581
188	0x39eef4f0	0.0004557739
189	0x3a2769c5	0.00063863053
190	0xba44516f	-0.0007488941
191	0xb9d61041	-0.0004082937
192	0xba422919	-0.0007406637
193	0xb9975869	-0.00028866835
194	0xb8d54e25	-0.00010171187
195	0xb9c3be3e	-0.0003733504
196	0xb99ef0fa	-0.0003031565
197	0xba6f68e3	-0.0009132756
198	0xb9892208	-0.00026156032
199	0x38d34f1f	0.000100760015
200	0x3abf3ed3	0.0014590867
201	0x3a42bb66	0.0007428437
202	0x3a73a1af	0.0009293807
203	0x3a93dfe1	0.0011281931
204	0x38a13df6	7.6886194e-05
205	0xb9f7be77	-0.0004725342
206	0x3a93c06b	0.0011272555
207	0xba4cc194	-0.0007810828
208	0x3925042d	0.00015737182
209	0xb9fe9a29	-0.00048561514
210	0x3a9f1bd9	0.0012139037
211	0x39041552	0.00012596443
212	0x3a73cccb	0.0009300231
213	0x3a7474f5	0.0009325289
214	0x3a254228	0.00063041085
215	0x3ac345b6	0.0014898095
216	0x3a5da75b	0.0008455419
217	0x3a11e8fd	0.0005566029
218	0x3aa2f341	0.0012432114
219	0xb81c2c03	-3.7234287e-05
220	0xb6edea3d	-7.0904193e-06
221	0xb93db7e2	-0.00018092946
222	0x38a5fdd7	7.9150945e-05
223	0xba1ceac1	-0.0005985909
224	0xb80fa272	-3.4245146e-05
225	0xb99de411	-0.00030115296
226	0xba4f782a	-0.0007914329
227	0xb892f090	-7.006631e-05
228	0xba6f1363	-0.00091200153
229	0x396bc1de	0.00022483568
230	0x384df780	4.910631e-05
231	0xb9ad0474	-0.0003300045
232	0x3987fefa	0.0002593918
233	0x390cbec2	0.00013422503
234	0x3901fc15	0.00012396307
235	0xb8fa95f9	-0.000119488635
236	0xb9625d47	-0.00021587788
237	0x386328d8	5.4159056e-05
238	0xb9191629	-0.00014599472
239	0xb9a0ad55	-0.0003064672
240	0x390c3f81	0.00013375097
241	0x3a9c1dd7	0.0011910748
242	0xb93c2def	-0.00017946189
243	0x39a403dd	0.00031283396
244	0x3aaad2d5	0.0013032804
245	0x35068fcc	5.012814e-07
246	0xb8d38479	-0.00010085939
247	0x39bcdcde	0.00036022713
248	0x38ee0de7	0.00011351314
249	0xb99b65a9	-0.00029639647
250	0x38b2216a	8.493925e-05
251	0x39fd73fc	0.00048342336
252	0xb99a9fc6	-0.0002949221
253	0x39a2814c	0.00030995382
254	0x368179a3	3.85866e-06
255	0xb9729710	-0.00023135194

exp_avg_sq f4 [64, 20]
0	0x3926cafe	0.00015906614
1	0x37ce4df4	2.4593413e-05
2	0x39192c65	0.00014607755
3	0x38ddfab1	0.00010584796
4	0x37ee4640	2.8404524e-05
5	0x38ec4755	0.000112666436
6	0x38d4a89c	0.00010140354
7	0x38f2c70e	0.00011576536
8	0x38cf575b	9.8868004e-05
9	0x38d4c5f5	0.0001014582
10	0x392bfaf2	0.00016401315
11	0x37e26167	2.6986656e-05
12	0x39193210	0.00014609867
13	0x3919a9b5	0.00014654438
14	0x37bf8deb	2.283506e-05
15	0x3925bf43	0.00015806877
16	0x37ad8963	2.0687183e-05
17	0x38f5622e	0.00011700798
18	0x38e062fa	0.00010699588
19	0x37ed099b	2.8257075e-05
20	0x3869388e	5.56042e-05
21	0x36bceeab	5.630621e-06
22	0x38612faa	5.368857e-05
23	0x3806a198	3.2098586e-05
24	0x36935523	4.3908526e-06
25	0x37f20b86	2.8854014e-05
26	0x378eef5e	1.7039183e-05
27	0x37e8b9ff	2.7743166e-05
28	0x37cfae2a	2.4757424e-05
29	0x3797c585	1.809258e-05
30	0x386541c5	5.4659107e-05
31	0x37096b7b	8.190861e-06
32	0x3854c7a8	5.0730683e-05
33	0x384741d6	4.750661e-05
34	0x369bc9c6	4.6428495e-06
35	0x3878f358	5.935444e-05
36	0x369c923f	4.6661876e-06
37	0x3845d6c4	4.7168476e-05
38	0x381875d5	3.6349364e-05
39	0x363d8188	2.8238592e-06
40	0x3834a162	4.3065644e-05
41	0x3701cd54	7.736806e-06
42	0x381d04e7	3.7436283e-05
43	0x38025415	3.1072723e-05
44	0x36980f57	4.531739e-06
45	0x381b711f	3.7060232e-05
46	0x37d250b5	2.5071533e-05
47	0x381c6601	3.7288297e-05
48	0x37c6f0c4	2.3715555e-05
49	0x3819209a	3.6508405e-05
50	0x3833be13	4.2853946e-05
51	0x36ec4c74	7.0422484e-06
52	0x3817c0ed	3.618088e-05
53	0x3827288f	3.9853676e-05
54	0x350ddd63	5.2848753e-07
55	0x3835e406	4.3366126e-05
56	0x36958ffd	4.4573085e-06
57	0x37fcf4ac	3.0154675e-05
58	0x37f8def7	2.966773e-05
59	0x34615384	2.0985141e-07
60	0x375f49ad	1.330899e-05
61	0x3722c2d7	9.701317e-06
62	0x3764be8f	1.3634227e-05
63	0x3758da35	1.2925409e-05
64	0x37895e4b	1.6375581e-05
65	0x3787d3c2	1.6191862e-05
66	0x37a00aa3	1.907844e-05
67	0x3798debc	1.822353e-05
68	0x373956a4	1.1047032e-05
69	0x379e825a	1.8895767e-05
70	0x375dd82a	1.3222956e-05
71	0x37073ba2	8.060511e-06
72	0x37559a41	1.2731704e-05
73	0x3754b12a	1.2677434e-05
74	0x3748bc7f	1.1964817e-05
75	0x3760bba8	1.3395133e-05
76	0x36fcb73e	7.5315174e-06
77	0x375e4712	1.32487785e-05
78	0x374a1846	1.204579e-05
79	0x3763c24e	1.3575494e-05
80	0x3727c148	9.9989775e-06
81	0x3683bf19	3.926351e-06
82	0x37406df8	1.1469696e-05
83	0x36c8dea4	5.9863833e-06
84	0x36eefd44	7.1224367e-06
85	0x37114ba3	8.660284e-06
86	0x371e3e9c	9.432111e-06
87	0x371f6722	9.501151e-06
88	0x3723fa15	9.773784e-06
89	0x370517e9	7.932985e-06
90	0x371d8b1f	9.390321e-06
91	0x36897f89	4.097765e-06
92	0x3728b276	1.00551315e-05
93	0x370035e3	7.641941e-06
94	0x36bfc97f	5.715701e-06
95	0x374b7a4a	1.21282155e-05
96	0x364405ac	2.9209577e-06
97	0x37590bc6	1.2936949e-05
98	0x36e10d3e	6.707064e-06
99	0x36e90edc	6.945671e-06
100	0x36eddcf2	7.088872e-06
101	0x3747cbe2	1.19087945e-05
102	0x3704a44b	7.906066e-06
103	0x371f806e	9.507041e-06
104	0x371276cd	8.729939e-06
105	0x3716e60f	8.994261e-06
106	0x36e6e445	6.881108e-06
107	0x3712ae33	8.742837e-06
108	0x371e8559	9.448581e-06
109	0x3719abd4	9.1595175e-06
110	0x36ecad87	7.0535493e-06
111	0x36b2779d	5.318738e-06
112	0x370c3579	8.3571e-06
113	0x36da5964	6.5073127e-06
114	0x36f7f595	7.389763e-06
115	0x36f7d854	7.3863575e-06
116	0x36af6284	5.226875e-06
117	0x3712747a	8.729397e-06
118	0x36d6ef5b	6.4055616e-06
119	0x370304b0	7.8093e-06
120	0x3795548d	1.7801556e-05
121	0x3808b066	3.258921e-05
122	0x37d261b0	2.507944e-05
123	0x37d70759	2.5633419e-05
124	0x378b8531	1.6632113e-05
125	0x380eca88	3.404406e-05
126	0x38240984	3.910951e-05
127	0x380a79c4	3.3015167e-05
128	0x382a631d	4.0623465e-05
129	0x37b43098	2.14803e-05
130	0x37a7ec3a	2.0017953e-05
131	0x3758b0ba	1.2915751e-05
132	0x37db0556	2.610932e-05
133	0x378c24ef	1.6706499e-05
134	0x370e2a8a	8.473764e-06
135	0x3793f74e	1.7638926e-05
136	0x3750bbb7	1.2441472e-05
137	0x37e81278	2.7665155e-05
138	0x3770f0dd	1.4361195e-05
139	0x3710e040	8.635281e-06
140	0x3812b5a6	3.4978286e-05
141	0x38874f4c	6.452072e-05
142	0x38542544	5.0579445e-05
143	0x38716030	5.754846e-05
144	0x380ca539	3.3532477e-05
145	0x38b110f7	8.443178e-05
146	0x38cb02fd	9.680351e-05
147	0x38a7b1a4	7.996269e-05
148	0x38bae441	8.911687e-05
149	0x386e5d2c	5.6830395e-05
150	0x38299aba	4.043684e-05
151	0x37924dd9	1.7440807e-05
152	0x387aa289	5.9756017e-05
153	0x37e3123a	2.7068996e-05
154	0x378470b2	1.5788104e-05
155	0x381608fa	3.5771147e-05
156	0x376b158e	1.401211e-05
157	0x3870d6b7	5.7420428e-05
158	0x37bddee7	2.2634353e-05
159	0x376b9e96	1.4044015e-05
160	0x39831eb5	0.00025009146
161	0x3825e09d	3.9548253e-05
162	0x395ecc20	0.00021247612
163	0x393cbfee	0.00018000577
164	0x37c570b2	2.3536708e-05
165	0x38f85f8f	0.00011843361
166	0x38a7c09a	7.9990554e-05
167	0x38f6b3bb	0.000117636715
168	0x388a05ed	6.5814565e-05
169	0x38d25492	0.00010029333
170	0x39838795	0.00025087284
171	0x382d7557	4.1355695e-05
172	0x39599053	0.00020748498
173	0x397832b1	0.00023670007
174	0x3797450a	1.8032752e-05
175	0x39811b9d	0.0002462537
176	0x37ee5a3e	2.8413833e-05
177	0x3926bec0	0.00015902054
178	0x39365adf	0.00017390725
179	0x379f3cab	1.8982528e-05
180	0x37392253	1.1034851e-05
181	0x36b387e5	5.350436e-06
182	0x375cee1f	1.3168464e-05
183	0x36e3f071	6.7931182e-06
184	0x36c9862b	6.005886e-06
185	0x3776fb56	1.4721261e-05
186	0x370b3d24	8.299281e-06
187	0x3781e853	1.5486183e-05
188	0x373eceae	1.1373004e-05
189	0x370f753e	8.550762e-06
190	0x374c4506	1.2175418e-05
191	0x36bb94ce	5.5903574e-06
192	0x3766f03d	1.3765003e-05
193	0x3728209f	1.00211755e-05
194	0x36bd7714	5.6465014e-06
195	0x374378c6	1.16510255e-05
196	0x368aaaf9	4.1326243e-06
197	0x375a73f2	1.3020808e-05
198	0x36f2fb36	7.241407e-06
199	0x36bc05d7	5.6035165e-06
200	0x36d4defa	6.3440502e-06
201	0x373486eb	1.0760249e-05
202	0x36fb9308	7.4974996e-06
203	0x36c9aa05	6.0100597e-06
204	0x378f1313	1.705581e-05
205	0x3739eecc	1.10824585e-05
206	0x36f500b4	7.301651e-06
207	0x373d7098	1.1291493e-05
208	0x36f8427c	7.3987158e-06
209	0x3757dff5	1.2867143e-05
210	0x36cb24df	6.054164e-06
211	0x37a13a7b	1.9219928e-05
212	0x36f29c9c	7.2303937e-06
213	0x36d82bb7	6.4423907e-06
214	0x37899bc4	1.6404207e-05
215	0x36e1111f	6.7075157e-06
216	0x3792a419	1.748097e-05
217	0x3735be07	1.0832685e-05
218	0x37277dea	9.983292e-06
219	0x379aa5e9	1.8435489e-05
220	0x3732df15	1.0661567e-05
221	0x36a69c37	4.9653713e-06
222	0x374a8d77	1.2073076e-05
223	0x370c9dc9	8.3813875e-06
224	0x36ccebd9	6.10713e-06
225	0x37347846	1.0756839e-05
226	0x368027fe	3.819353e-06
227	0x373148d0	1.0566975e-05
228	0x37060e97	7.990419e-06
229	0x36aa8e23	5.0829417e-06
230	0x373a316f	1.1097974e-05
231	0x362628b2	2.4759615e-06
232	0x374b0b15	1.2102323e-05
233	0x3717a036	9.037603e-06
234	0x36a3600a	4.868959e-06
235	0x373c337c	1.121766e-05
236	0x35ca0b3a	1.505344e-06
237	0x3748103c	1.1924709e-05
238	0x36d0979b	6.2165323e-06
239	0x36939f29	4.39947e-06
240	0x36df2fff	6.6515054e-06
241	0x380dfbd7	3.3851564e-05
242	0x36c2ebc5	5.8090977e-06
243	0x37d674ec	2.5565234e-05
244	0x379e15ab	1.8845158e-05
245	0x3782611e	1.5542431e-05
246	0x37c01dbf	2.2902035e-05
247	0x3775745a	1.4630228e-05
248	0x3782a2d3	1.5573029e-05
249	0x3763a270	1.3568075e-05
250	0x36a80aa4	5.008029e-06
251	0x3781fa7c	1.549464e-05
252	0x36d0ff0d	6.228575e-06
253	0x36ed825b	7.078326e-06
254	0x3706bc57	8.030874e-06
255	0x36b1598b	5.2854352e-06

exp_avg f4 [64]
0	0x3a762f68	0.00093912194
1	0x3a819269	0.0009885553
2	0xba0810af	-0.00051904743
3	0xba0f3cac	-0.0005464058
4	0x3ad4e5ae	0.0016242766
5	0xba88fb59	-0.0010450884
6	0x3b9520b8	0.0045510195
7	0xbb695d4f	-0.0035608595
8	0x3b521d18	0.0032060798
9	0x3a1545f7	0.00056943245
10	0xba034dd7	-0.00050088525
11	0x3a12b79e	0.0005596819
12	0x3a2ece61	0.0006668326
13	0xbac18efc	-0.0014767344
14	0x3b4611bb	0.003022297
15	0x39e9dcc8	0.00044605718
16	0x3b027295	0.0019904722
17	0x3abfe957	0.0014641684
18	0xba2298fa	-0.0006202605
19	0xbb936eb6	-0.0044992818
20	0x3bc60c72	0.006043964
21	0x38eeb913	0.00011383197
22	0x3a008e6c	0.0004904035
23	0x3a993b0c	0.0011690571
24	0x385d3949	5.2743857e-05
25	0x3a884501	0.0010396541
26	0xba76f20f	-0.0009420225
27	0x3931dea6	0.00016962978
28	0xbb0645ef	-0.002048846
29	0x3bb10810	0.0054025725
30	0x3bb0b57d	0.005392729
31	0x3977a3e0	0.00023616804
32	0x3b194a05	0.0023390066
33	0xb94648b7	-0.0001890984
34	0x3a5ca438	0.00084168045
35	0xba134bf3	-0.00056189223
36	0x3931c737	0.00016954249
37	0xba06127b	-0.0005114448
38	0x39d33b1f	0.00040289105
39	0x38cbbcc1	9.7149525e-05
40	0x3c1189e4	0.008882973
41	0xbaa4d8d0	-0.0012576822
42	0x388d62a9	6.741781e-05
43	0x3ae4ca1b	0.0017455252
44	0x3af4f308	0.0018688152
45	0x3a92aa2a	0.0011189629
46	0x3a53f848	0.0008086008
47	0xbb22052a	-0.0024722316
48	0x3c138ecd	0.009006214
49	0xb965c90c	-0.00021914038
50	0x3a5a836b	0.0008335623
51	0x3a68b514	0.00088770804
52	0xb6170a64	-2.2506802e-06
53	0x3ab56904	0.0013840501
54	0x3ba7118a	0.0050985264
55	0x3a86cdc8	0.0010284716
56	0x3b99d8ae	0.0046950197
57	0x3a9038eb	0.0011003291
58	0x3b16cf94	0.002301191
59	0x3ae4a0a6	0.0017442896
60	0xba5d3e87	-0.0008439798
61	0xba9b8b2a	-0.0011867036
62	0x3af986af	0.0019037331
63	0xb87c5187	-6.015741e-05

exp_avg_sq f4 [64]
0	0x3903fcab	0.0001258726
1	0x382307a8	3.886936e-05
2	0x3801b449	3.09239e-05
3	0x3716917b	8.974569e-06
4	0x372f1086	1.043466e-05
5	0x37499d03	1.2017091e-05
6	0x386116b8	5.366534e-05
7	0x38ed00c3	0.000113011825
8	0x391834d9	0.00014515537
9	0x37bdde73	2.2634142e-05
10	0x369c16d9	4.651822e-06
11	0x3784c328	1.5826503e-05
12	0x3712f120	8.758419e-06
13	0x38977fa3	7.224015e-05
14	0x3902c03e	0.00012469382
15	0x373cbfa8	1.1250297e-05
16	0x3827cad6	4.000481e-05
17	0x383b0b4a	4.4594788e-05
18	0x36e170eb	6.718668e-06
19	0x39404e6e	0.00018339764
20	0x398abf2d	0.00026463848
21	0x3792c3e0	1.7495768e-05
22	0x3623f48b	2.4431235e-06
23	0x36e78893	6.900236e-06
24	0x36c7f738	5.959442e-06
25	0x3769f447	1.39447575e-05
26	0x36d8e615	6.4640867e-06
27	0x360f4e88	2.1354372e-06
28	0x387056b1	5.7301197e-05
29	0x388fa4ad	6.8494446e-05
30	0x39332708	0.0001708531
31	0x3781fc56	1.5495501e-05
32	0x386768f3	5.5172433e-05
33	0x35fbc0d2	1.8757075e-06
34	0x365c145b	3.2794403e-06
35	0x37196789	9.143617e-06
36	0x384bd3bf	4.8596175e-05
37	0x37a3769f	1.9486351e-05
38	0x36905708	4.301666e-06
39	0x3713359e	8.7743665e-06
40	0x39a86dd3	0.00032125282
41	0x38925fff	6.979703e-05
42	0x375a065e	1.2995295e-05
43	0x37b91bce	2.2066666e-05
44	0x396095fd	0.0002141818
45	0x370dee5f	8.459755e-06
46	0x37fd27cc	3.0178482e-05
47	0x3890ccbe	6.904591e-05
48	0x395c207d	0.00020992938
49	0x3689ecb3	4.1104736e-06
50	0x375be4df	1.3106705e-05
51	0x36e2e7fd	6.762332e-06
52	0x3851cdc6	5.0021124e-05
53	0x375b5a8a	1.30744975e-05
54	0x3a10e569	0.0005527349
55	0x36c38f0b	5.8281053e-06
56	0x39403ad6	0.00018332465
57	0x386d98fa	5.6647674e-05
58	0x37f6334c	2.9349372e-05
59	0x38294352	4.0355437e-05
60	0x384eb071	4.927855e-05
61	0x380a68b1	3.2999265e-05
62	0x37ed48a2	2.8286424e-05
63	0x36ce79c6	6.1534547e-06

exp_avg f4 [32, 64]
0	0xb86d154c	-5.6525038e-05
1	0xb9c7f602	-0.00038139528
2	0x39ba3cfe	0.00035522127
3	0x39e49e07	0.00043605288
4	0xba110116	-0.0005531473
5	0xba0b45f8	-0.00053128554
6	0xba367f18	-0.00069616875
7	0xb80ab456	-3.3069715e-05
8	0x398aac21	0.00026449657
9	0xb8ce70d0	-9.8438584e-05
10	0x3959fcfb	0.00020788975
11	0xb98a0cea	-0.00026331033
12	0xb9a44604	-0.00031332683
13	0xb9e3a104	-0.0004341678
14	0xba05ca32	-0.0005103677
15	0xbae2c0c9	-0.0017299886
16	0x38e3e962	0.000108676744
17	0xba1ac929	-0.0005904609
18	0xb97fc1e2	-0.00024390922
19	0x38ecd0fe	0.00011292285
20	0xb9278f1a	-0.0001597967
21	0xb888a309	-6.515353e-05
22	0xbb01738e	-0.0019752714
23	0xba149af9	-0.00056688447
24	0xba2ad510	-0.0006516734
25	0xb9ad4c04	-0.00033053767
26	0x3885a15f	6.371992e-05
27	0x3800ea61	3.073586e-05
28	0xb97c80c0	-0.00024080556
29	0xb991b43b	-0.00027790837
30	0xb934f372	-0.00017256828
31	0x388271cb	6.220079e-05
32	0x39443a82	0.00018713812
33	0xb965a3ca	-0.00021900158
34	0xb8070245	-3.2188622e-05
35	0xb906b6aa	-0.00012847284
36	0xb8f95a3b	-0.00011890052
37	0x38902af9	6.874459e-05
38	0xb8d37902	-0.000100838035
39	0xb9789040	-0.0002370486
40	0xb9bf4664	-0.00036482804
41	0xba0730e7	-0.00051571283
42	0xb9bb616c	-0.00035740004
43	0xba96c5e5	-0.0011503069
44	0x387059ba	5.7304023e-05
45	0xb9c7c90a	-0.00038106024
46	0xb818d0c1	-3.643404e-05
47	0xb99c03dd	-0.00029757517
48	0xb9cfba12	-0.0003962075
49	0xb9d2dec4	-0.00040220295
50	0xba18a003	-0.00058221834
51	0xb97d3876	-0.00024148994
52	0xb942120f	-0.00018508009
53	0x3936e381	0.00017441624
54	0x38b3acc0	8.567562e-05
55	0x3a83115c	0.000999968
56	0xb974ff83	-0.00023364839
57	0xba122577	-0.00055750407
58	0x3a7e7a7d	0.0009707583
59	0x3a9ee380	0.0012122244
60	0x38e5708b	0.00010940534
61	0xb9c6a6d6	-0.00037889805
62	0xb9d1d448	-0.00040021748
63	0xb9311844	-0.00016889075
64	0x3a0b1eba	0.0005307008
65	0xb75d23e0	-1.3180979e-05
66	0xba343e47	-0.0006875735
67	0xba39fbc1	-0.0007094704
68	0xb8c2bba5	-9.2855924e-05
69	0xb950d91f	-0.0001991731
70	0x3990c6e0	0.00027613994
71	0xba44fb8f	-0.0007514292
72	0x39f38233	0.00046445578
73	0xb8e42350	-0.00010878465
74	0xb99dd961	-0.00030107333
75	0xb9c0111a	-0.00036633835
76	0x35c79365	1.4869553e-06
77	0xb9641e82	-0.0002175514
78	0x37e246c5	2.6974254e-05
79	0x38833935	6.2572224e-05
80	0x39cd6a05	0.00039179638
81	0x3993841a	0.00028136448
82	0xb847a01d	-4.7594414e-05
83	0xba6e151b	-0.00090821245
84	0x38deeac5	0.00010629514
85	0xb9c2fcfe	-0.00037191057
86	0x39216077	0.00015390092
87	0x386cc3dd	5.6449197e-05
88	0x39303c3e	0.0001680711
89	0xb91a4f39	-0.00014716097
90	0xba6b67ab	-0.00089799863
91	0x383068de	4.2059335e-05
92	0xb91356b7	-0.00014051316
93	0x39bdefed	0.00036227648
94	0xb962efd9	-0.0002164239
95	0xb98862c7	-0.00026013536
96	0xb9d56bd3	-0.0004070686
97	0x39a08891	0.00030619328
98	0xba0b09b4	-0.0005303875
99	0xb992a4e7	-0.00027970152
100	0xbaa0e87f	-0.001227632
101	0xba03dd6a	-0.00050302467
102	0xba2dca1b	-0.00066295423
103	0xb6d78ed5	-6.424127e-06
104	0xb8edfcd2	-0.00011348132
105	0xb99bc1ca	-0.00029708288
106	0x385b04f4	5.221828e-05
107	0x39feecc4	0.0004862306
108	0xb88f39f8	-6.829569e-05
109	0xb9a20eb9	-0.00030910017
110	0xb91ee88d	-0.00015154686
111	0xba589c8b	-0.0008263073
112	0x38569615	5.116135e-05
113	0xb9213b3c	-0.00015376223
114	0x3995fe98	0.00028609182
115	0xb97b4b17	-0.00023965198
116	0xb8dbcbf6	-0.000104807244
117	0xb8e3ba38	-0.000108588894
118	0xb8a353dc	-7.788066e-05
119	0xb90ceea4	-0.00013440341
120	0x389fe6aa	7.624675e-05
121	0x38a4e609	7.862977e-05
122	0x39cea093	0.0003941102
123	0xb9947a0a	-0.00028319686
124	0xb9bffb76	-0.00036617712
125	0xbac3e79b	-0.0014946343
126	0x390e4c2f	0.00013570556
127	0xb93f0a3f	-0.00018218996
128	0x3a58118b	0.000824236
129	0x39308899	0.00016835555
130	0xba287972	-0.0006426788
131	0xba81104b	-0.0009846775
132	0x39a51149	0.0003148413
133	0x39345985	0.00017199486
134	0x3ac85360	0.0015283637
135	0xba2dc3ef	-0.00066286227
136	0x3a19fc42	0.0005874076
137	0xb9f6eb6a	-0.00047096174
138	0xb9eb02d7	-0.0004482481
139	0x3953f828	0.00020214973
140	0xb8b01d9d	-8.39785e-05
141	0xb9a08132	-0.00030613836
142	0x3a884a0d	0.0010398045
143	0x3ac9b347	0.0015388512
144	0x39e68ae1	0.0004397249
145	0xb80f6970	-3.4192053e-05
146	0xba1a90cb	-0.00058962096
147	0xbacd62e0	-0.0015669726
148	0x3b08842b	0.0020830731
149	0xba045cd7	-0.00050492346
150	0x3b1e8062	0.002418541
151	0x3998eb0d	0.00029166826
152	0x38b4ac94	8.615214e-05
153	0x39824d55	0.0002485315
154	0xba35d264	-0.00069359527
155	0xba24751f	-0.0006273556
156	0xb9f64884	-0.00046974805
157	0x394390e0	0.0001865062
158	0x3a8aac59	0.0010579928
159	0xba0d12e1	-0.00053815363
160	0xba035ec9	-0.00050113775
161	0xb9dbddaf	-0.00041936102
162	0xb93897cb	-0.00017604155
163	0xb98afe05	-0.0002651067
164	0xbab1dc37	-0.0013569657
165	0xba486b74	-0.00076454063
166	0xba83495c	-0.001001637
167	0xb98e549c	-0.0002714739
168	0x3aeee5b6	0.0018226418
169	0xb9669478	-0.00021989818
170	0x3a6bcb0a	0.0008994794
171	0x3b0507e7	0.00202989
172	0x3a6ad790	0.0008958513
173	0x3abb4f09	0.0014290522
174	0xb98c84ed	-0.00026801918
175	0xba2dadbf	-0.00066253165
176	0x39de4ce7	0.00042400436
177	0xba29ce8c	-0.0006477616
178	0x3a635857	0.00086725265
179	0x38dd6824	0.00010557499
180	0xb9bfb1ee	-0.00036562927
181	0xb9ccc296	-0.0003905489
182	0x3a8a2e45	0.0010542354
183	0xb894b2bc	-7.090482e-05
184	0x3b091982	0.0020919745
185	0x3a58b46a	0.000826663
186	0x398b6657	0.00026588395
187	0x3673e1dc	3.634129e-06
188	0xb9f8750f	-0.00047389462
189	0xba006065	-0.00048971764
190	0x3a6f04c0	0.0009117834
191	0xba12392a	-0.0005577976
192	0xbafadb95	-0.0019138927
193	0xb915b0d1	-0.00014275617
194	0x386c20a4	5.6297184e-05
195	0x378fa267	1.7122553e-05
196	0xba2120da	-0.0006146558
197	0x38bc6ad8	8.98444e-05
198	0xba1e0c83	-0.0006029086
199	0xb987a51b	-0.0002587222
200	0xba2e0c4c	-0.00066394056
201	0xb9c3cbd1	-0.00037345153
202	0x38c3be45	9.333765e-05
203	0x392547f1	0.00015762426
204	0x396ca7f1	0.00022569277
205	0xb9fd7d57	-0.00048349306
206	0x3967f9e7	0.00022122973
207	0xb8275d6a	-3.99029e-05
208	0xb8df99c6	-0.00010662111
209	0xb97cbf67	-0.00024103896
210	0x39563de7	0.00020431691
211	0xba024dda	-0.0004970707
212	0x392cb709	0.00016471384
213	0x387b4f18	5.9916725e-05
214	0xb95f9d05	-0.00021325432
215	0xba3bccec	-0.00071640196
216	0xb9b13106	-0.00033796596
217	0xba496132	-0.0007682025
218	0x3901d8af	0.0001238312
219	0xb947124a	-0.00018984932
220	0xb9ad913e	-0.00033105345
221	0xba1c8800	-0.00059711933
222	0xb98269de	-0.0002487441
223	0x380e4a44	3.3924603e-05
224	0x3810ee36	3.4554127e-05
225	0x38bdf8ee	9.058589e-05
226	0x38cdf50f	9.8208075e-05
227	0x3888548c	6.5007334e-05
228	0xb99c8cb7	-0.0002985948
229	0x37e98531	2.7837787e-05
230	0xb937b9ea	-0.00017521498
231	0xb8121565	-3.4829038e-05
232	0xb9120f24	-0.00013929285
233	0xb9e0b075	-0.0004285608
234	0xb9a29d32	-0.00031016167
235	0xb9270e80	-0.00015931763
236	0x3895a436	7.13546e-05
237	0x39d06e1e	0.00039754895
238	0x3839ca23	4.429569e-05
239	0xb9cd37e0	-0.00039142277
240	0xb8fdff2d	-0.0001211151
241	0x3898f2f3	7.2931776e-05
242	0xba08dd73	-0.0005220987
243	0xb867de8f	-5.5281966e-05
244	0xb94df9ea	-0.00019643424
245	0xba2b8535	-0.0006542982
246	0x38b49187	8.6101754e-05
247	0xb99c5c71	-0.00029823513
248	0x38b68520	8.703233e-05
249	0xba0e18f8	-0.0005420591
250	0xba28f948	-0.0006445837
251	0xba621e3e	-0.0008625722
252	0x3844682f	4.682707e-05
253	0xb88f1a13	-6.823628e-05
254	0x389b4fda	7.4058495e-05
255	0x38f1f64b	0.00011537651

exp_avg_sq f4 [32, 64]
0	0x3780ffcb	1.5377902e-05
1	0x36967599	4.4840385e-06
2	0x35763f4c	9.173425e-07
3	0x35b9cd71	1.3843365e-06
4	0x36d60d3f	6.379239e-06
5	0x367dea20	3.7836217e-06
6	0x36999162	4.57668e-06
7	0x36969475	4.487631e-06
8	0x378804e3	1.6214739e-05
9	0x369ffeee	4.768247e-06
10	0x360c0d23	2.0869272e-06
11	0x367b3f9c	3.743894e-06
12	0x360ea703	2.1256863e-06
13	0x36a351f2	4.8673182e-06
14	0x35e79c79	1.7256381e-06
15	0x3718a820	9.099051e-06
16	0x37836440	1.56631e-05
17	0x36ad293b	5.1606016e-06
18	0x360fd3f6	2.1432038e-06
19	0x36b768cb	5.4660245e-06
20	0x35da8dae	1.62835e-06
21	0x359624ed	1.1186618e-06
22	0x3785b6e8	1.5940008e-05
23	0x368767fa	4.035418e-06
24	0x35c60cb9	1.4755852e-06
25	0x3691fad9	4.3505393e-06
26	0x35e4c6be	1.7045165e-06
27	0x36d4f8ab	6.347041e-06
28	0x35f53f6f	1.8272384e-06
29	0x3704b7ab	7.910577e-06
30	0x35dea2e0	1.6587692e-06
31	0x3529a4ff	6.3197507e-07
32	0x34caed02	3.7797878e-07
33	0x36cfd08d	6.1933592e-06
34	0x3694c05e	4.433138e-06
35	0x35987477	1.1358778e-06
36	0x3674febf	3.6507115e-06
37	0x358b2b10	1.036884e-06
38	0x36f89f3f	7.4095146e-06
39	0x3601f319	1.9364e-06
40	0x35ae996c	1.3008662e-06
41	0x360b4a73	2.075595e-06
42	0x36e9bbf0	6.96582e-06
43	0x36a644ae	4.955181e-06
44	0x35e7354b	1.7226351e-06
45	0x36d15694	6.2387644e-06
46	0x35574441	8.0193064e-07
47	0x368357dd	3.914333e-06
48	0x35604b21	8.355583e-07
49	0x3635704a	2.7036463e-06
50	0x369a48b9	4.5980237e-06
51	0x3626ca94	2.4853844e-06
52	0x3631f401	2.6517084e-06
53	0x36a26e1b	4.840794e-06
54	0x35412747	7.195526e-07
55	0x360a19b0	2.0578555e-06
56	0x36592115	3.2354776e-06
57	0x36338db0	2.6755552e-06
58	0x3721b63d	9.6387785e-06
59	0x36e97f2c	6.958746e-06
60	0x34e5dcf5	4.281534e-07
61	0x371c2997	9.308008e-06
62	0x3644b110	2.930934e-06
63	0x361e5de0	2.3598477e-06
64	0x3571cee7	9.008058e-07
65	0x3666eb98	3.4409804e-06
66	0x36aa7540	5.0800445e-06
67	0x370234ea	7.760924e-06
68	0x351e96d1	5.9079053e-07
69	0x362c173a	2.5643517e-06
70	0x3602db5e	1.9499198e-06
71	0x379a244d	1.8375134e-05
72	0x35762781	9.1699627e-07
73	0x36e20859	6.7362967e-06
74	0x3732b265	1.06511625e-05
75	0x3612aa09	2.1854669e-06
76	0x34b56de6	3.379384e-07
77	0x37bc10ff	2.241926e-05
78	0x35cc3a00	1.5216065e-06
79	0x36adb8b3	5.1773036e-06
80	0x3621c455	2.410515e-06
81	0x35338a60	6.688406e-07
82	0x3754d3ad	1.2685469e-05
83	0x37a01269	1.908206e-05
84	0x359d5c94	1.1724355e-06
85	0x36f5db07	7.327067e-06
86	0x36a4c979	4.9110354e-06
87	0x36000711	1.90776e-06
88	0x36ba2053	5.546995e-06
89	0x34e6df81	4.300346e-07
90	0x373c8d92	1.1238635e-05
91	0x37ddd1f8	2.6443027e-05
92	0x36e1f8a1	6.7344668e-06
93	0x35a6b6ad	1.242113e-06
94	0x35bb0bf4	1.3936065e-06
95	0x367a1e39	3.7270495e-06
96	0x3604ba66	1.977803e-06
97	0x37c67123	2.3656123e-05
98	0x36125258	2.1803626e-06
99	0x370862c1	8.129225e-06
100	0x372712fa	9.958394e-06
101	0x36ded61f	6.6410425e-06
102	0x37e518b1	2.7310425e-05
103	0x36ecd4d7	7.058126e-06
104	0x35e94d3c	1.7382331e-06
105	0x3642cc0d	2.9027026e-06
106	0x369f0141	4.7387152e-06
107	0x3621f439	2.4133026e-06
108	0x35a0031c	1.1921834e-06
109	0x36b754dd	5.4637044e-06
110	0x367db7c2	3.78069e-06
111	0x3707e619	8.100201e-06
112	0x35756460	9.141568e-07
113	0x37492012	1.1988001e-05
114	0x3656540d	3.193741e-06
115	0x36171031	2.2510178e-06
116	0x36e87b31	6.92848e-06
117	0x35c463c6	1.4632176e-06
118	0x35abc6b6	1.2798325e-06
119	0x35f166c9	1.7985814e-06
120	0x3601f869	1.9367092e-06
121	0x364464d7	2.9264972e-06
122	0x35bb4922	1.395387e-06
123	0x3672f797	3.6204926e-06
124	0x3629517a	2.5230388e-06
125	0x3718b426	9.10185e-06
126	0x36460157	2.950508e-06
127	0x3741b485	1.1545727e-05
128	0x36c6a552	5.9201057e-06
129	0x3703cb8b	7.8555995e-06
130	0x37077824	8.0745995e-06
131	0x373dfe23	1.1324449e-05
132	0x373a7ec2	1.1115977e-05
133	0x3700a1f0	7.6670985e-06
134	0x37aac6e5	2.0358197e-05
135	0x37a7da73	2.0009675e-05
136	0x360dfeed	2.1159024e-06
137	0x3724d985	9.825807e-06
138	0x3767f69b	1.382609e-05
139	0x36ec4b6d	7.042129e-06
140	0x362290b3	2.4224107e-06
141	0x37cb39c6	2.4226389e-05
142	0x3785650e	1.5901893e-05
143	0x37920dd3	1.7410994e-05
144	0x36e968a6	6.956124e-06
145	0x368ff12a	4.2898073e-06
146	0x378e081b	1.6931494e-05
147	0x37aa0473	2.0267651e-05
148	0x37c4a5fe	2.3442317e-05
149	0x3747380b	1.1874373e-05
150	0x380c1213	3.3395434e-05
151	0x36b4f404	5.392825e-06
152	0x36f41ed2	7.2753546e-06
153	0x3681dfc8	3.870551e-06
154	0x3770b5b2	1.4347419e-05
155	0x380303a8	3.123624e-05
156	0x36fdf887	7.56892e-06
157	0x36a8dfad	5.0328294e-06
158	0x374c6125	1.2181966e-05
159	0x36ba43ca	5.5511236e-06
160	0x365a2d1f	3.2510795e-06
161	0x37f93725	2.9708792e-05
162	0x3714d557	8.8711595e-06
163	0x3742483f	1.1580122e-05
164	0x3749ceab	1.2028652e-05
165	0x372fe719	1.0484619e-05
166	0x3805c4e3	3.1893036e-05
167	0x37262311	9.902536e-06
168	0x37b42fc1	2.147991e-05
169	0x36a297d7	4.8456527e-06
170	0x376a5ae1	1.3968646e-05
171	0x376b97d1	1.4042439e-05
172	0x37a7a7f2	1.9986157e-05
173	0x374a8520	1.2071134e-05
174	0x36d1cd28	6.2525687e-06
175	0x37242107	9.7828515e-06
176	0x37267c4a	9.923309e-06
177	0x378d83f6	1.6869959e-05
178	0x37213b39	9.610137e-06
179	0x36a0aa33	4.7881854e-06
180	0x370d49b4	8.421415e-06
181	0x378ad609	1.655055e-05
182	0x37748979	1.4575541e-05
183	0x36898435	4.098309e-06
184	0x38209535	3.8285933e-05
185	0x36bf2682	5.6967265e-06
186	0x36bf20b7	5.696052e-06
187	0x36dd86c9	6.6020043e-06
188	0x3689f9be	4.111992e-06
189	0x379dff68	1.8834791e-05
190	0x36f67480	7.3449337e-06
191	0x37951afb	1.7774748e-05
192	0x370d3a76	8.417866e-06
193	0x368855f0	4.0631203e-06
194	0x352800d9	6.258611e-07
195	0x35295127	6.30755e-07
196	0x36aff454	5.24385e-06
197	0x36872672	4.027789e-06
198	0x36904e63	4.30066e-06
199	0x35dbc6c2	1.6374618e-06
200	0x3648553b	2.9851933e-06
201	0x36361f8e	2.713848e-06
202	0x35021d19	4.8471117e-07
203	0x368217af	3.877059e-06
204	0x35ebdcc0	1.7573111e-06
205	0x363491cd	2.6906957e-06
206	0x35e1544d	1.6788341e-06
207	0x370abb32	8.269026e-06
208	0x361cb62d	2.3351852e-06
209	0x362f3d66	2.611277e-06
210	0x35b66100	1.3588287e-06
211	0x3610fa8a	2.1603505e-06
212	0x35e83d0a	1.7303112e-06
213	0x35a68421	1.2406418e-06
214	0x375cba55	1.3156406e-05
215	0x36824645	3.8824824e-06
216	0x358cde22	1.0495462e-06
217	0x364adef8	3.023013e-06
218	0x355a7f66	8.139672e-07
219	0x35c1ec2c	1.4448356e-06
220	0x3576f36b	9.199636e-07
221	0x36c5a6b1	5.890463e-06
222	0x35d29ae7	1.5691302e-06
223	0x34de83f4	4.144673e-07
224	0x34733fc4	2.2654336e-07
225	0x3638ea3c	2.755448e-06
226	0x368af1cd	4.14087e-06
227	0x3534d28b	6.7361606e-07
228	0x35f240fb	1.8049317e-06
229	0x352b8fae	6.3911546e-07
230	0x35b8c579	1.376654e-06
231	0x3565e3f6	8.5640875e-07
232	0x35c2c335	1.4510939e-06
233	0x35db41c8	1.6335916e-06
234	0x36cf29a1	6.173927e-06
235	0x36940c8e	4.4122053e-06
236	0x36001564	1.9085937e-06
237	0x36bfdd0d	5.7179773e-06
238	0x350d5657	5.2652234e-07
239	0x35fd9b94	1.8895248e-06
240	0x355e3de4	8.279151e-07
241	0x35bf2ed7	1.4244241e-06
242	0x368b108f	4.1444505e-06
243	0x35e42b0b	1.6999851e-06
244	0x35a498bf	1.2263407e-06
245	0x3663ced6	3.394603e-06
246	0x35654f37	8.542442e-07
247	0x35e17605	1.6798155e-06
248	0x361995fb	2.2886077e-06
249	0x362535cf	2.4618237e-06
250	0x365f331d	3.3259341e-06
251	0x366ae804	3.5003768e-06
252	0x349be2ce	2.9036022e-07
253	0x3714bc1b	8.865284e-06
254	0x3650639c	3.1052396e-06
255	0x35da85bd	1.6281189e-06
